checkpoint_critic.pth (torch_old, 915131 bytes, 9 tensors)

fcs1.weight f4 [128, 33]
-0.10723355 0.04317681 -0.16423734 0.020691382 0.09330201 0.005828859 -0.045583848 -0.012724824
-0.015457317 0.02571392 0.0011195588 0.019134657 -0.027414637 -0.047585875 -0.079173565 0.08479438
0.027096447 -0.023157204 0.020655267 0.017340466 -0.020499304 -0.009674143 0.012250488 -0.07937085
-0.031495173 -0.012484387 0.056338217 -0.023560628 -0.013021064 0.019064076 0.04336697 0.001487501
-0.23092334 0.10350094 0.04069569 0.0812693 -0.014423149 -0.043905698 0.0025337462 0.02699129
-0.03277066 0.078506485 -0.09384313 0.035911538 0.020772666 -0.008448416 -0.1173533 -0.023675716
-0.020512946 -0.00963335 0.0002445753 -0.0139076 0.0021430545 0.005066976 0.0010723218 0.011939406
-0.041938562 -0.033359054 0.009929354 0.07929295 -0.004791738 0.08992002 0.065631725 -0.05137954
-0.060825564 0.5082136 -0.07511234 0.09207034 0.06813883 -0.039425723 -0.05310286 0.008863538
0.0016977901 0.016886093 -0.04869899 -0.006805312 0.013208576 -0.032253128 0.1479933 0.017557412
0.014333134 0.029566187 0.016053995 -0.02217071 -0.032235347 0.0008900909 0.059752915 0.055574562
0.062372558 -0.01692523 -0.0068488833 -0.056480896 0.008797546 0.05099501 -0.036853947 -0.049998164
0.06249145 0.03416975 0.04768305 -0.082304575 0.029675715 -0.025229918 -0.08980372 -0.051550657
-0.014481638 -0.072604574 0.010213209 0.044147275 0.011538335 -0.041898653 0.020763246 -0.0017557028
-0.0890836 0.13738391 -0.05097194 0.046715923 0.0076213526 -0.015858058 -0.011199135 0.022640454
0.002966972 -0.032479845 0.03764201 0.08590701 0.013936675 0.041416578 0.0006521954 0.083095536
-0.07349813 0.10170964 0.06641301 0.07298635 -0.057337865 -0.07617971 0.019761382 0.015113429
-0.057215367 0.105412394 -0.054876216 -0.0009689832 0.08941534 -0.024994034 0.026578179 0.0023402635
0.0087952325 0.10436534 0.1241047 -0.08126426 0.02570632 -0.053531718 -0.031029519 -0.0045831245
0.011087373 0.03583387 -0.03222169 0.017748998 0.018357057 -0.0017110343 -0.143222 -0.061162323
0.118135594 -0.041332044 -0.06737592 0.05961401 0.043102253 -0.002951962 0.15194501 -0.021999024
-0.081137516 0.03680694 -0.020891579 0.035179596 0.035287596 0.0051185037 -0.0717426 -0.012038417
0.0488228 -0.03551415 0.14137913 0.10458638 -0.08963988 0.018868186 -0.0085176295 0.078614905
-0.070291154 0.0086619565 -0.031051306 -0.0038289728 -0.006075159 0.05560988 -0.025513163 -0.056938477
-0.028671803 0.0877076 0.082055725 0.081272125 -0.047600407 -0.21093965 0.010010237 -0.08485067
0.057206795 0.01677506 -0.02151319 0.0408231 -0.07214948 0.033920098 -0.107849024 -0.038635295
-0.07123066 0.022479162 0.048375875 -0.07654616 0.11247558 -0.08715315 0.017173486 -0.01906519
0.044010807 -0.01748582 0.012953579 0.04790258 0.01179318 -0.048740458 -0.042597476 -0.097734876
-0.004610063 0.0016158209 0.0806194 -0.040796515 0.091215275 -0.0779882 0.34362504 0.05500007
0.06823697 0.01847935 -0.011602511 -0.018130274 -0.039732635 0.0105837425 -0.037136607 0.100337565
-0.03233296 0.04034092 -0.029666318 -0.07746711 0.023777962 -0.07575424 -0.09336279 -0.046147935
-0.028097458 -0.05999148 -0.022715108 -0.09003017 -0.02598282 0.070088156 0.08192013 0.0020083075
00000000: 439d dbbd 2bda 303d d52d 28be f980 a93c
00000010: 2015 bf3d 0300 bf3b 21b6 3abd c87b 50bc
00000020: b040 7dbc 00a6 d23c 29be 923a 49c0 9c3c
00000030: a994 e0bc 68e9 42bd c025 a2bd ada8 ad3d
00000040: 5ef9 dd3c 2db4 bdbc 3c35 a93c 980d 8e3c
00000050: 28ee a7bc 4c80 1ebc 45b6 483c 2f8d a2bd
00000060: 1501 01bd 508b 4cbc e7c2 663d 3802 c1bc
00000070: 4d56 55bc 442c 9c3c 90a1 313d 40f8 c23a
00000080: 2b77 6cbe 4df8 d33d 86b0 263d 8570 a63d
00000090: 124f 6cbc 76d6 33bd 350d 263b d61c dd3c
000000a0: 873a 06bd 02c8 a03d d430 c0bd fa17 133d
000000b0: 702b aa3c 3a6b 0abc ed56 f0bd 93f3 c1bc
000000c0: c40a a8bc 33d5 1dbc 573a 8039 b4dc 63bc
000000d0: 7d72 0c3b e008 a63b 268d 8c3a 809d 433c
000000e0: c5c7 2bbd 81a3 08bd bbae 223c 5864 a23d
000000f0: 0304 9dbb fd27 b83d ed69 863d 5a73 52bd
00000100: 3a24 79bd 491a 023f 80d4 99bd 608f bc3d
00000110: 5f8c 8b3d de7c 21bd 6282 59bd 5f38 113c
00000120: 6288 de3a b454 8a3c 9878 47bd 18ff debb
00000130: c868 583c db1b 04bd 8e8b 173e 90d4 8f3c
00000140: 85d5 6a3c ca34 f23c ab83 833c 599f b5bc
00000150: 3609 04bd fd54 693a 79bf 743d 27a2 633d
00000160: 5e7a 7f3d c8a6 8abc 996c e0bb 8358 67bd
00000170: 9523 103c 25e0 503d 2af4 16bd e0ca 4cbd
00000180: 09f7 7f3d 94f5 0b3d 4d4f 433d 4d8f a8bd
00000190: 7c1a f33c f9ae cebc 03eb b7bd c826 53bd
000001a0: 6444 6dbc b5b1 94bd 4e55 273c c6d3 343d
000001b0: 490b 3d3c ec9d 2bbd af17 aa3c 9c1f e6ba
000001c0: 7671 b6bd 5eae 0c3e f4c7 50bd 3259 3f3d
000001d0: 8abc f93b c2e8 81bc 947c 37bc 7978 b93c
000001e0: 8871 423b 9609 05bd 822e 1a3d 04f0 af3d
000001f0: a756 643c 6ea4 293d 18f8 2a3a fe2d aa3d
00000200: 3086 96bd 254d d03d 8b03 883d de79 953d
00000210: 1cdb 6abd 1c04 9cbd 9fe2 a13c 519e 773c
00000220: a95a 6abd 74e2 d73d e2c5 60bd 5d03 7eba
00000230: 641f b73d 4ac0 ccbc 7bba d93c 1b5f 193b
00000240: e119 103c 7fbd d53d 9b2a fe3d e06d a6bd
00000250: 0f96 d23c 1344 5bbd 9e31 febc 092e 96bb
00000260: d0a7 353c 89c6 123d e4fa 03bd 5966 913c
00000270: 8a61 963c c944 e0ba caa8 12be 5885 7abd
00000280: 13f1 f13d ca4b 29bd 63fc 89bd d22d 743d
00000290: fd8b 303d b475 41bb 7997 1b3e 4c37 b4bc
000002a0: 6d2b a6bd e0c2 163d d124 abbc 7b18 103d
000002b0: ba89 103d 1fb9 a73b c9ed 92bd c83c 45bc
000002c0: 6bfa 473d 4977 11bd b1c5 103e 6231 d63d
000002d0: 1d95 b7bd 7491 9a3c 878d 0bbc da00 a13d
000002e0: cff4 8fbd e1ea 0d3c 4f5f febc 81ef 7abb
000002f0: 2112 c7bb 2fc7 633d fb00 d1bc 5238 69bd
00000300: 21e1 eabc 0ba0 b33d d50c a83d 0072 a63d
00000310: a5f8 42bd 9000 58be fa01 243c 30c6 adbd
00000320: ac51 6a3d da6b 893c 6e3c b0bc 1f36 273d
00000330: 1bc3 93bd cdef 0a3d f3df dcbd 0b40 1ebd
00000340: 61e1 91bd 3826 b83c c825 463d 3cc4 9cbd
00000350: 9959 e63d 5a7d b2bd 69af 8c3c 9a2e 9cbc
00000360: ad44 343d 6c3e 8fbc 403b 543c 7f35 443d
00000370: 2f38 413c 13a4 47bd b17a 2ebd 3929 c8bd
00000380: 0310 97bb f4c9 d33a c91b a53d 3f1a 27bd
00000390: 13cf ba3d 47b8 9fbd 9fef af3e c147 613d
000003a0: d3bf 8b3d 0162 973c 7518 3ebc f185 94bc
000003b0: b0be 22bd 6f67 2d3c 8e1c 18bd c87d cd3d
000003c0: 916f 04bd 853c 253d c706 f3bc 13a7 9ebd
000003d0: 00ca c23c 0a25 9bbd fe34 bfbd 9e05 3dbd
000003e0: a42c e6bc a0b9 75bd 0915 babc bd61 b8bd
000003f0: ecd9 d4bc 618a 8f3d bec5 a73d cf9d 033b

fcs1.bias f4 [128]
-0.0936998 0.08735688 -0.16500875 -0.059403535 0.09166844 0.08311119 -0.05584894 -0.21102877
0.065350704 0.17397176 -0.072250806 0.1257464 -0.12078615 0.11329994 0.072858 -0.12815523
0.055728387 -0.08647173 -0.021950873 -0.058964334 -0.16875309 0.04920907 0.12172263 -0.047792885
0.08637122 -0.15736254 0.008268474 -0.1005023 0.04177689 -0.029091734 -0.1262895 -0.06015559
-0.07050092 -0.12243359 -0.027334498 0.21103959 -0.086601004 -0.013762212 -0.05503041 -0.094611585
0.0027371293 -0.14200167 0.07781582 -0.06976166 0.062491495 0.10227929 0.13784188 0.1927951
-0.10359299 -0.18965568 -0.07604987 -0.17833287 0.026821494 -0.13303311 -0.027179562 0.14829284
0.016601764 -0.012002702 0.11391468 -0.13170616 -0.1961697 0.13243732 0.08139942 -0.09279671
-0.17966798 0.007444048 0.08672411 -0.09300195 -0.06752218 -0.018917836 0.075369656 0.051585525
0.17292348 0.1240257 0.059657525 -0.100081846 -0.0849515 -0.038168874 0.01615208 -0.13700543
-0.16192414 -0.0024202843 -0.059395276 0.07049459 -0.056538206 -0.024307093 0.08806785 0.018251972
0.0054715145 0.08469283 -0.15460914 0.12915018 0.02556907 -0.15426274 0.06258036 -0.09188366
-0.06371548 -0.08100591 -0.15564115 0.19488566 0.10762053 0.06483283 -0.16446468 0.20685104
-0.0040080845 -0.19698556 -0.14434253 0.025929894 -0.061677862 -0.0034742004 -0.1427382 -0.060565997
-0.14212936 -0.104018755 -0.14460722 -0.07854029 0.15824471 -0.07296041 -0.11668387 0.17757274
-0.015781902 -0.17467047 -0.10539195 0.026743023 -0.11456251 0.069022454 -0.12948337 -0.15126973
00000000: aee5 bfbd 2ae8 b23d 0ef8 28be 1f51 73bd
00000010: aabc bb3d 3336 aa3d dcc1 64bd ed17 58be
00000020: 97d6 853d a725 323e 3bf8 93bd aac3 003e
00000030: bb5e f7bd cd09 e83d 9336 953d 203b 03be
00000040: 7343 643d 1718 b1bd 51d2 b3bc 9684 71bd
00000050: 9ccd 2cbe 738f 493d b749 f93d 79c2 43bd
00000060: 65e3 b03d a523 21be 7e78 073c 26d4 cdbd
00000070: 3f1e 2b3d ca51 eebc 0952 01be b565 76bd
00000080: c962 90bd 76be fabd 99ec dfbc c31a 583e
00000090: de5b b1bd e77a 61bc 9167 61bd b8c3 c1bd
000000a0: 6961 333b e368 11be e75d 9f3d 34df 8ebd
000000b0: 15f7 7f3d ce77 d13d 6c26 0d3e 146c 453e
000000c0: 9028 d4bd 1935 42be 09c0 9bbd e49c 36be
000000d0: c0b8 db3c d539 08be aca7 debc 14da 173e
000000e0: 6c00 883c fba6 44bc 1a4c e93d fbdd 06be
000000f0: b6e0 48be a69d 073e bdb4 a63d 340c bebd
00000100: e2fa 37be 33ed f33b 699c b13d ce77 bebd
00000110: 1249 8abd 94f9 9abc 685b 9a3d 584b 533d
00000120: da12 313e 3001 fe3d 735b 743d b6f7 ccbd
00000130: 0dfb adbd f756 1cbd 5e51 843c 274b 0cbe
00000140: 71cf 25be a29d 1ebb 7648 73bd 785f 903d
00000150: 9b94 67bd ab1f c7bc eb5c b43d 2985 953c
00000160: 644a b33b 6f73 ad3d dc51 1ebe f23f 043e
00000170: 3a76 d13c 0df7 1dbe 222a 803d 802d bcbd
00000180: 437d 82bd 6de6 a5bd 6560 1fbe 1b90 473e
00000190: 2768 dc3d 13c7 843d 6e69 28be c2d0 533e
000001a0: 4056 83bb 95b6 49be 87ce 13be ee6a d43c
000001b0: eda1 7cbd 69af 63bb f629 12be 0d14 78bd
000001c0: 5c8a 11be c907 d5bd ea13 14be bbd9 a0bd
000001d0: e70a 223e 446c 95bd f4f7 eebd a1d5 353e
000001e0: 0c49 81bc d1dc 32be bcd7 d7bd 2f14 db3c
000001f0: c09f eabd a55b 8d3d 4a97 04be 74e6 1abe

fcs2.weight f4 [128, 4]
0.06358539 0.057411045 -0.1039481 0.087979965 -0.050705913 0.06534497 0.009535685 0.08581505
-0.014070377 -0.0070585012 0.087821834 -0.045618787 -0.016439473 0.008183718 0.060480453 0.07807519
-0.022862786 0.0067841634 0.017860115 -0.029128168 -0.014312491 -0.06067749 0.055239998 0.038296364
0.068775706 -0.0074622855 -0.0555457 -0.054137543 -0.039999668 -0.08482671 0.056070454 0.044401128
0.06896935 -0.0067943484 -0.07846315 -0.015824705 -0.0056475103 -0.004144393 -0.024719507 0.024552263
0.027717866 0.06888116 0.08595695 0.055370696 -0.050635558 -0.045218986 -0.05335817 0.06643486
0.04246234 -6.290525e-05 0.0007015988 0.08746534 0.06708167 -0.00084483717 -0.012177186 -0.077804916
-0.045380093 0.006950704 0.04835262 0.0012865952 -0.020810515 0.016928874 0.03942112 -0.012537338
-0.056916215 0.009383981 -0.048045486 0.0816235 0.11582156 0.15591252 0.06627738 -0.100479715
-0.025930544 0.04566641 0.051875163 0.16542761 0.0069905487 -0.006675859 -0.19565938 -0.085843116
0.06359392 0.050821535 0.05069276 -0.07679729 0.04831662 -0.029573906 0.039121058 4.04085e-05
-0.0063446066 0.02594033 -0.14321306 0.10355296 -0.0034125745 -0.031083196 -0.0042487085 -0.00482139
0.041705184 -0.0072788172 -0.03232855 0.08330688 0.06607244 0.02728004 0.06492484 0.0051400214
0.04617866 -0.056435093 0.03173285 0.031391278 0.09220269 -0.013007937 0.0052264715 0.0026533897
0.0008106685 0.036592435 -0.05968013 -0.061586775 0.045244716 -0.086710766 -0.063230105 -0.061396137
-0.01821757 0.008920193 -0.22445694 0.11679656 0.047137715 0.024973514 0.053037796 0.0023542426
0.08152638 -0.00999615 -0.0071147443 0.06759968 -0.04504954 -0.03631367 -0.08563113 0.09253841
-0.017560871 -0.00041422903 0.104656644 -0.08629677 -0.017195648 0.021675905 -0.056773577 -0.098948754
0.017138312 -0.09957476 0.0012465509 0.1340994 -0.00895863 0.009098595 -0.055324838 0.079613335
-0.04518275 -0.02175364 0.0044683586 -0.012243491 -0.05342465 0.03337482 0.0024245742 0.010776971
-0.054151133 -0.060941614 -0.02085536 0.017883442 -0.09562515 0.09144718 0.13572963 0.018744575
0.05996605 0.013800482 0.020202298 -0.090504594 0.024901517 0.04289422 0.031149484 -0.059989683
0.029301792 0.009044923 0.08050016 -0.057760403 0.06852824 0.042243626 0.050328888 0.029167455
-0.024867728 0.048195425 -0.028286299 0.070607446 -0.020868067 -0.01563055 -0.11645329 0.075457126
0.0076246886 0.042588923 -0.027207429 -0.013084035 0.019303411 0.04389029 -0.011880688 -0.028420042
-0.08366288 0.005180374 0.02967193 -0.07362067 -0.014504574 -0.081783995 -0.009578019 0.06681011
0.031090504 0.024997499 0.07965928 -0.009587655 0.027860403 0.013604657 -0.124317355 -0.12285011
-0.0015507799 0.048479546 -0.114968196 0.06941311 -0.05371972 -0.028300129 0.081172615 -0.03639904
-0.022805754 -0.042646956 -0.08853448 -0.09823701 0.04509666 0.014071551 -0.019450305 0.08848219
0.06806742 0.04025029 -0.024071628 -0.036566522 -0.0050504436 -0.0020186806 0.07850936 -0.011084608
-0.04884488 -0.0383045 0.07487129 0.016102193 0.0040721176 0.013290357 0.091244884 0.15301153
-0.012667622 -0.061655533 -0.022376945 -0.06893906 -0.08886345 -0.051628355 0.007153822 0.124385
00000000: 0f39 823d d827 6b3d bee2 d4bd d72e b43d
00000010: 01b1 4fbd 95d3 853d 903b 1c3c cdbf af3d
00000020: 7087 66bc 004b e7bb efdb b33d c4da 3abd
00000030: 13ac 86bc 0015 063c 5aba 773d e3e5 9f3d
00000040: bd4a bbbc b04d de3b 604f 923c 329e eebc
00000050: f07e 6abc f688 78bd 5643 623d a6dc 1c3d
00000060: 47da 8c3d 3086 f4bb e383 63bd 54bf 5dbd
00000070: b1d6 23bd a0b9 adbd 22aa 653d f5dd 353d
00000080: cd3f 8d3d 20a3 debb 4ab1 a0bd d0a2 81bc
00000090: c00e b9bb b0cd 87bb 9080 cabc d421 c93c
000000a0: 9410 e33c 9111 8d3d 330a b03d 62cc 623d
000000b0: 3b67 4fbd 8b37 39bd 198e 5abd 000f 883d
000000c0: feec 2d3d 00ec 83b8 80eb 373a 0721 b33d
000000d0: 1d62 893d 1078 5dba d282 47bc 2f58 9fbd
000000e0: 7ae0 39bd bbc2 e33b 660d 463d f9a2 a83a
000000f0: d07a aabc 6cae 8a3c 0a78 213d 6869 4dbc
00000100: fa20 69bd 45bf 193c 58cb 44bd 392a a73d
00000110: db33 ed3d 88a7 1f3e 6fbc 873d 4fc8 cdbd
00000120: 4b6c d4bc b40c 3b3d 0d7b 543d db65 293e
00000130: f910 e53b 2ac1 dabb ef5a 48be 84ce afbd
00000140: 873d 823d 3e2a 503d 36a3 4f3d e647 9dbd
00000150: a6e7 453d fa44 f2bc 673d 203d 4c7c 2938
00000160: 6be6 cfbb d180 d43c 72a6 12be 9313 d43d
00000170: 80a5 5fbb 30a2 febc c038 8bbb c0fc 9dbb
00000180: 0ed3 2a3d 2583 eebb f16a 04bd cc9c aa3d
00000190: fd50 873d 647a df3c 51f7 843d a06d a83b
000001a0: d625 3d3d 7c28 67bd 4efa 013d 2494 003d
000001b0: c4d4 bc3d 3e1f 55bc d242 ab3b 7ee4 2d3b
000001c0: 0b83 543a f3e1 153d 2773 74bd 6a42 7cbd
000001d0: 8652 393d 6a95 b1bd c97e 81bd 847a 7bbd
000001e0: 033d 95bc 0026 123c 0ad8 65be 0933 ef3d
000001f0: 7a13 413d 4195 cc3c 293e 593d a349 1a3b
00000200: 4df7 a63d e4c6 23bc cd22 e9bb b371 8a3d
00000210: de85 38bd a5bd 14bd 605f afbd c784 bd3d
00000220: d1db 8fbc e12c d9b9 3956 d63d 5cbc b0bd
00000230: e3dd 8cbc ab91 b13c 698b 68bd a5a5 cabd
00000240: a565 8c3c daed cbbd 4f63 a33a 5a51 093e
00000250: 38c7 12bc 4612 153c 4c9c 62bd 510c a33d
00000260: 8c11 39bd b134 b2bc 4f6b 923b ec98 48bc
00000270: ced3 5abd 09b4 083d 9be5 1e3b e491 303c
00000280: 94cd 5dbd ea9d 79bd dcd8 aabc 4c80 923c
00000290: 1ed7 c3bd a948 bb3d b5fc 0a3e 398e 993c
000002a0: f69e 753d 6b1b 623c 4a7f a53c 795a b9bd
000002b0: 44fe cb3c dab1 2f3d 342d ff3c beb7 75bd
000002c0: 500a f03c 2831 143c 45dd a43d 2c96 6cbd
000002d0: 8958 8c3d a707 2d3d aa25 4e3d 96f0 ee3c
000002e0: 68b7 cbbc 9168 453d abb8 e7bc a39a 903d
000002f0: 82f3 aabc a40b 80bc 107f eebd 4489 9a3d
00000300: 86d8 f93b b971 2e3d 1de2 debc 6c5e 56bc
00000310: 3022 9e3c 4ec6 333d 38a7 42bc 26d1 e8bc
00000320: 7257 abbd 20c0 a93b 8c12 f33c 6fc6 96bd
00000330: 98a4 6dbc 5e7e a7bd 20ed 1cbc bdd3 883d
00000340: 83b1 fe3c 8ec7 cc3c 6824 a33d 8a15 1dbc
00000350: 803b e43c 11e6 5e3c 199a febd d798 fbbd
00000360: 8a43 cbba 7d92 463d 7274 ebbd 7628 8e3d
00000370: 3609 5cbd acd5 e7bc d43d a63d 2917 15bd
00000380: 22d3 babc 93ae 2ebd 9151 b5bd 7c30 c9bd
00000390: 46b7 383d 5d8c 663c 3f56 9fbc 2736 b53d
000003a0: ee66 8b3d 7ddd 243d dd31 c5bc c7c6 15bd
000003b0: 317e a5bb d74b 04bb 84c9 a03d 379c 35bc
000003c0: 9211 48bd 2ee5 1cbd 1e56 993d bfe8 833c
000003d0: 666f 853b ccbf 593c 99de ba3d 0eaf 1c3e
000003e0: dc8b 4fbc 838a 7cbd db4f b7bc ec2f 8dbd
000003f0: 0afe b5bd 4178 53bd 9c6a ea3b 90bd fe3d

fcs2.bias f4 [128]
-0.04992751 -0.455764 -0.22706395 0.0047466336 0.3022652 -0.21233338 -0.22790241 -0.063457504
-0.47566497 -0.18029386 -0.3115002 0.34804583 -0.31445205 -0.048576843 0.34241188 -0.09672457
0.36800024 -0.21396552 -0.06969547 0.045411192 -0.3509606 0.2768921 0.064497925 -0.49697858
0.16750708 -0.198232 -0.26770633 0.1311567 0.08055641 -0.30624384 0.122001894 0.033250533
-0.16782853 0.27591622 0.021414794 0.19551092 -0.098207355 0.017010054 0.09011596 0.2823605
-0.43454486 -0.10761749 0.24367614 -0.22960669 -0.36503112 0.29997182 0.1993797 0.39222872
0.112500876 -0.13401425 -0.38795674 -0.3228715 0.14700128 -0.07886689 0.3923084 0.31421614
-0.027931472 0.40709534 0.054584164 0.0817366 0.48204926 -0.0927332 0.15321557 -0.092434146
0.4251768 0.19279893 -0.16908443 -0.44296068 0.063633785 -0.0027220673 0.19157958 0.20189473
-0.4572001 -0.41301394 -0.13659823 -0.42927802 -0.012092661 0.22150333 0.4489741 -0.07570163
-0.3833139 0.26791787 -0.3410278 0.24560377 -0.18030025 -0.23850137 0.29477504 0.11128379
-0.138708 0.26194116 -0.4403072 -0.085162014 -0.2724033 -0.36843103 -0.4387375 -0.31408674
0.14659032 -0.27186984 0.43351853 -0.02000229 0.072056994 0.31473622 0.07908734 -0.32349873
-0.12823492 -0.09078872 -0.22594732 0.07285582 -0.3802405 0.09761928 -0.34164906 0.3530184
-0.087684065 -0.44277614 -0.37829846 -0.44371158 0.021284064 0.013328154 -0.25205237 -0.24293882
-0.37892258 -0.29284394 -0.18745506 -0.29721534 0.13964176 0.15116177 -0.22423834 0.03777435
00000000: ca80 4cbd e659 e9be 7483 68be a689 9b3b
00000010: 81c2 9a3e ec6d 59be 405f 69be 02f6 81bd
00000020: 5c8a f3be f49e 38be f47c 9fbe 1033 b23e
00000030: dcff a0be 83f8 46bd 9c50 af3e 8817 c6bd
00000040: 876a bc3e c719 5bbe 80bc 8ebd 1601 3a3d
00000050: 1cb1 b3be cdc4 8d3e 7d17 843d fa73 febe
00000060: fa86 2b3e 54fd 4abe ce10 89be f14d 063e
00000070: c2fa a43d fecb 9cbe 21dc f93d b631 083d
00000080: 3edb 2bbe e444 8d3e 146e af3c 0434 483e
00000090: f020 c9bd ab58 8b3c b78e b83d 8e91 903e
000000a0: aa7c debe 8f66 dcbd 3d86 793e 041e 6bbe
000000b0: 5ce5 babe e895 993e 312a 4c3e 34d2 c83e
000000c0: dc66 e63d 083b 09be 44a2 c6be 6a4f a5be
000000d0: 8187 163e f784 a1bd a6dc c83e f0e0 a03e
000000e0: 8bd0 e4bc cd6e d03e a593 5f3d 8565 a73d
000000f0: 29cf f63e e7ea bdbd 8be4 1c3e 1d4e bdbd
00000100: c6b0 d93e 156d 453e 7824 2dbe becb e2be
00000110: 6e52 823d b664 32bb 702d 443e 7ebd 4e3e
00000120: 2216 eabe 9076 d3be 68e0 0bbe 54ca dbbe
00000130: 4c20 46bc c5d1 623e efdf e53e 7509 9bbd
00000140: b841 c4be 882c 893e 329b aebe 8e7f 7b3e
00000150: a1a0 38be b439 74be c1ec 963e c1e8 e33d
00000160: 7809 0ebe 271d 863e f26f e1be 6c69 aebd
00000170: 7278 8bbe fea2 bcbe 34a2 e0be facf a0be
00000180: c61b 163e 8632 8bbe 24f6 dd3e d8db a3bc
00000190: 9e92 933d 1b25 a13e 8bf8 a13d a0a1 a5be
000001a0: 0450 03be 70ef b9bd bc5e 67be 6f35 953d
000001b0: e2ae c2be 9eec c73d a0ec aebe d4be b43e
000001c0: b493 b3bd 8eb3 e2be 56b0 c1be 2a2e e3be
000001d0: eb5b ae3c 545e 5a3c 020d 81be f4c4 78be
000001e0: 2402 c2be a4ef 95be 38f4 3fbe 9c2c 98be
000001f0: 40fe 0e3e 27ca 1a3e bc9e 65be 47b9 1a3d

fc2.weight f4 [400, 256]
0.036383286 0.055228498 -0.02703307 0.01011043 0.031088723 -0.08461124 0.03722484 0.024389425
0.035255484 0.033476908 -0.09951998 -0.05122383 0.009321134 0.057026498 0.024857858 -0.017796809
-0.024780495 -0.1388742 0.00093617686 -0.078281656 -0.08139171 0.035271972 0.025944468 -0.11406509
-0.056123067 -0.008242358 0.06102012 -0.089638 0.06087217 -0.05028659 0.037646446 -0.048167348
-0.085563645 0.066585734 -0.00078989303 0.0604384 -0.04153717 0.041114215 0.0109428875 -0.057772987
-0.010203591 -0.035805415 0.029378988 -0.05856698 -0.043662664 -0.015903095 0.03150267 -0.079148315
0.095242545 0.010646688 -0.043314222 -0.008381323 -0.0024343657 0.059550196 0.054606516 -0.05309898
0.0016120515 0.069005154 0.07494463 -0.07549118 0.03588893 0.0073145027 0.0012929849 -0.046258207
-0.11358303 0.06707329 0.059035543 0.01284336 -0.07574973 0.038900945 -0.09284348 -0.017636672
-0.04730656 0.02330619 -0.00030880954 0.060104433 -0.033612233 0.02094739 -0.021450987 0.06569403
0.03949143 0.07508005 -0.060479857 -0.08544971 -0.04567687 -0.029947622 0.056636177 0.058827963
-0.051619157 0.019062597 0.007534539 0.039680075 0.01035412 0.021697875 -0.032764785 -0.034537327
0.09451182 0.076582775 0.06429952 -0.019532232 0.046549004 0.039230112 -0.024295809 0.010889041
0.026223857 0.015366469 0.0015673576 -0.050371505 0.06476063 -0.010175111 0.04931242 -0.04497077
0.06485241 0.010460123 -0.005796139 -0.03506308 -0.048717495 -0.021667622 0.03330609 0.03991469
0.019385988 -0.072069384 0.038440328 0.011542932 -0.1475324 -0.036039107 -0.08010269 -0.082291804
0.0012735239 0.017284747 -0.010829873 -0.039811023 -0.005911601 0.00440336 -0.00823145 -0.07583026
-0.014984656 -0.0009232834 0.035278346 -0.041802686 0.007754009 0.11338726 0.0037626524 0.017083447
-0.05512173 0.014391446 -0.12198888 -0.012708813 0.0074622445 0.024506358 -0.0023363975 0.0013976581
-0.013409535 0.0353545 -0.035849355 -0.001971708 0.033702437 0.048997488 0.013364894 0.06542302
-0.046982218 0.021432737 0.0048026717 0.043704312 -0.1033363 -0.07382661 -0.012240771 0.003216056
0.032874104 -0.07255012 -0.020012 0.015130851 -0.004735291 -0.022665564 -0.07432545 -0.048642725
-0.00846296 0.04694188 -0.024836486 -0.0013901591 0.033524923 0.014737429 0.031222446 -0.01364306
-0.010427169 -0.017890446 0.08224746 -0.06610664 -0.033331938 -0.08156857 0.062932655 0.008467455
0.022760797 -0.009205683 -0.04510751 -0.033051036 -0.13547741 -0.0310853 -0.0141660655 -0.0077646524
0.04123642 0.038504522 0.029293146 -0.044911016 0.054163735 -0.054493017 -0.030098412 -0.0234377
0.043697517 0.011783271 0.0050457306 0.02504344 -0.024150321 0.02232365 0.037492253 -0.06569284
0.03940634 0.06223208 0.007983159 0.05047803 -0.024285425 0.02956209 -0.0023220293 0.035783205
0.030845178 0.022952948 -0.031317662 -0.06501261 0.017181309 -0.015873786 -0.04404491 -0.040496208
-0.013622921 -0.09168697 -0.0019875243 -0.1656961 -0.038909603 0.045135915 0.029071521 0.043561682
0.063203506 0.007025443 0.006591618 -0.0017963126 -0.12769543 -0.043300625 -0.018344134 0.038799834
-0.045924295 0.006959874 -0.04237575 0.034183767 -0.051724914 0.0013913052 -0.005378425 0.06754332
00000000: a406 153d 4737 623d 7574 ddbc 38a6 253c
00000010: c7ad fe3c a848 adbd 1379 183d 55cc c73c
00000020: 0e68 103d 151f 093d 22d1 cbbd 14d0 51bd
00000030: abb7 183c 9e94 693d b5a2 cb3c 9dca 91bc
00000040: 7700 cbbc 0a35 0ebe c469 753a 2252 a0bd
00000050: b2b0 a6bd 5879 103d 7e89 d43c f59a e9bd
00000060: 4de1 65bd f50a 07bc 3cf0 793d 2194 b7bd
00000070: 1955 793d 50f9 4dbd 2933 1a3d 204b 45bd
00000080: fe3b afbd 1a5e 883d d310 4fba 418e 773d
00000090: e122 2abd 6167 283d cc49 333c 5ea3 6cbd
000000a0: f62c 27bc b3a8 12bd 34ac f03c eee3 6fbd
000000b0: 9fd7 32bd 3547 82bc f208 013d 8318 a2bd
000000c0: 860e c33d 726f 2e3c 416a 31bd d151 09bc
000000d0: e189 1fbb e8ea 733d 15ab 5f3d 517e 59bd
000000e0: 794b d33a 9352 8d3d 927c 993d 1f9b 9abd
000000f0: 4500 133d 7fae ef3b 6079 a93a 3f79 3dbd
00000100: 389e e8bd b95d 893d 41cf 713d f56c 523c
00000110: ad22 9bbd 9956 1f3d b924 bebd c87a 90bc
00000120: 86c4 41bd 9fec be3c b7e7 a1b9 1130 763d
00000130: fbac 09bd dc99 ab3c fbb9 afbc 978a 863d
00000140: c4c1 213d 92c3 993d bab9 77bd 4200 afbd
00000150: ab17 3bbd b754 f5bc 56fb 673d 97f5 703d
00000160: 9c6e 53bd 2a29 9c3c 4be4 f63b 9387 223d
00000170: 54a4 293c bebf b13c 5e34 06bd 0377 0dbd
00000180: 6a8f c13d 6ed7 9c3d 77af 833d 0f02 a0bc
00000190: 2baa 3e3d c1af 203d 0108 c7bc f367 323c
000001a0: 6ad3 d63c a4c3 7b3c cb6f cd3a 5a52 4ebd
000001b0: 39a1 843d 82b5 26bc d2fb 493d 4533 38bd
000001c0: 57d1 843d f060 2b3c 8aed bdbb 4e9e 0fbd
000001d0: ff8b 47bd 4c80 b1bc f76b 083d 967d 233d
000001e0: 5dcf 9e3c 1d99 93bd 9b73 1d3d 911e 3d3c
000001f0: bc12 17be be9d 13bd e10c a4bd 9b88 a8bd
00000200: 5fec a63a be98 8d3c c86f 31bc e210 23bd
00000210: 1ab6 c1bb 104a 903b 34dd 06bc e54c 9bbd
00000220: 3482 75bc 8008 72ba 0780 103d 4b39 2bbd
00000230: 5815 fe3b 9437 e83d d596 763b 96f2 8b3c
00000240: 53c7 61bd 19ca 6b3c 4ed5 f9bd a038 50bc
00000250: d885 f43b 8fc1 c83c 3f1e 19bb a031 b73a
00000260: abb3 5bbc e1cf 103d c6d6 12bd c537 01bb
00000270: 910b 0a3d 97b1 483d 6ef8 5a3c 81fc 853d
00000280: 6d70 40bd b593 af3c bb5f 9d3b 4b03 333d
00000290: fba1 d3bd 6832 97bd 848d 48bc 77c4 523b
000002a0: ffa6 063d 2895 94bd 35f0 a3bc 64e7 773c
000002b0: 802a 9bbb 22ad b9bc f137 98bd 983d 47bd
000002c0: 3aa8 0abc 2146 403d e375 cbbc 0036 b6ba
000002d0: 6e51 093d 4275 713c 37c6 ff3c 2487 5fbc
000002e0: b7d6 2abc fc8e 92bc 5b71 a83d eb62 87bd
000002f0: 1287 08bd 6c0d a7bd d6e2 803d 15bb 0a3c
00000300: da74 ba3c 6fd3 16bc a7c2 38bd 8660 07bd
00000310: 97ba 0abe 99a6 febc c918 68bc a06e febb
00000320: 85e7 283d ebb6 1d3d 2ef8 ef3c 9df4 37bd
00000330: cbda 5d3d 1234 5fbd f290 f6bc 6b00 c0bc
00000340: 2bfc 323d 9f0e 413c a856 a53b e627 cd3c
00000350: e5d6 c5bc 16e0 b63c 7a91 193d f889 86bd
00000360: 8b68 213d 11e7 7e3d cccb 023c 0dc2 4e3d
00000370: 3af2 c6bc 322c f23c 302d 18bb 6991 123d
00000380: 07af fc3c d207 bc3c f346 00bd 5525 85bd
00000390: d1bf 8c3c be09 82bc 7068 34bd 5adf 25bd
000003a0: ac32 5fbc 61c6 bbbd 2041 02bb 3dac 29be
000003b0: ad5f 1fbd 70e0 383d 6627 ee3c bc6d 323d
000003c0: d770 813d b035 e63b 80fe d73b 4072 ebba
000003d0: 97c2 02be ff5b 31bd 7046 96bc 93ec 1e3d
000003e0: 1d1b 3cbd a80f e43b 3292 2dbd 4704 0c3d
000003f0: 81dd 53bd 755c b63a 803d b0bb 2754 8a3d

fc2.bias f4 [400]
-0.023756944 -0.04581297 0.05949456 0.01628198 -0.034058705 -0.026066834 -0.0012115391 -0.0090600625
-0.019744312 -0.04758876 0.02152193 -0.034615595 -0.03951365 0.042904228 -0.052469384 0.048757948
-0.06807539 0.03152081 -0.06314763 0.03836095 -0.043708157 -0.016388621 0.05395978 0.0061645955
0.004800849 -0.047044333 -0.011156927 -0.0682201 -0.016247742 -0.044812493 -0.08411025 0.0052607497
0.017505927 0.04780635 -0.05985122 0.06869585 -0.06536077 -0.015958047 -0.038957074 -0.056725625
-0.029985484 -0.048941225 0.07343458 -0.0049685542 0.020932544 0.03689601 -0.03408537 0.034663655
0.005740936 -0.0485771 -0.064996794 0.00020934342 0.043735757 -0.00096470123 -0.08564603 0.011198215
0.020007212 -0.02020672 0.039336156 -0.007977858 -0.029662732 0.011826105 0.0060333204 -0.00405527
-0.023494948 0.036565766 0.06872922 -0.029070266 -0.03210216 0.011590302 -0.0026923898 -0.05349904
0.08448212 -0.05701616 -0.037250116 -0.022591714 -0.071546085 -0.010209006 -0.077252835 -0.043464422
-0.042471133 0.0012141223 0.050200768 -0.005049486 0.027740488 -0.04351518 0.030115467 -0.040403623
-0.060345862 0.010631799 0.019671233 0.056223728 0.04547419 -0.06530555 0.0018500184 -0.063456915
-0.027196497 -3.6610993e-05 -0.055280942 0.032805998 0.047080807 -0.033132132 0.036862418 0.014235617
0.031503323 0.036903296 0.027081639 -0.012898461 0.029436264 -0.041945025 -0.09551281 -0.002255841
-0.002607744 -0.04854707 0.050611284 -0.048980158 -0.030812448 -0.025810014 -0.048142325 0.0071679233
-0.0700163 0.064204425 -0.010548778 0.017700832 -0.019229488 0.023923954 0.025280902 -0.025083967
-0.03864147 0.050485034 0.0062592374 0.086436376 0.054226942 -0.020949416 -0.084034204 0.027722606
-0.06056576 -0.05181479 -0.020848023 0.021802938 0.04507225 0.060604937 -0.035823636 -0.0711568
0.004524651 -0.012612007 0.050490286 0.06842225 0.03875606 0.0119819855 -0.0015110619 0.08456286
0.028776783 -0.040681113 0.07746734 -0.06286995 -0.02245999 0.07034125 -0.012979574 -0.071506396
0.007698639 -0.016543638 0.04016294 -0.00862313 -0.040962927 0.03594634 0.025283651 -0.073210314
-0.009149191 0.07178478 -0.031902164 -0.048725795 0.10807594 0.028694695 -0.058507733 -0.0043254215
0.015762981 -0.033998173 0.004427908 -0.06540017 -0.025743948 0.007986822 -0.04607428 -0.07093645
-0.010892194 -0.06111294 0.005627015 -0.019962177 -0.009700931 -0.05686697 0.03284325 0.014733232
0.01311302 0.054579627 -0.036011416 -0.05362186 -0.02612228 -0.069744445 0.025009172 0.067931786
0.018979508 0.007922038 -0.0699696 -0.031816714 -0.047223907 -0.06700024 0.035142556 -0.0039982554
0.0066908123 -0.0051717535 0.017345114 -0.046712328 0.04986884 -0.037643064 -0.025646638 -0.0061846194
0.009120353 0.000358165 -0.032661177 0.04864442 -0.028387481 -0.022519326 -0.07881315 0.0444653
-0.06956709 -0.073206745 0.046750028 -0.0021806024 -0.033033535 0.015336575 -0.058837865 0.036626656
-0.04856272 -0.05533413 -0.06342712 6.279374e-05 0.047748733 0.016493816 0.052680597 0.075421646
-0.001249819 0.0042341943 0.0011796289 -0.03475405 -0.054403767 0.033641744 -0.010922207 0.050363205
-0.0627975 0.038348243 -0.027546406 -0.009304665 -0.09004588 0.042404335 0.023749122 -0.012169712
00000000: ec9d c2bc 61a6 3bbd 91b0 733d c961 853c
00000010: 2481 0bbd 1d8a d5bc 82cc 9eba a870 14bc
00000020: d3be a1bc 6eec 42bd c24e b03c 15c9 0dbd
00000030: 11d9 21bd 58bc 2f3d 23ea 56bd 6ab6 473d
00000040: 1c6b 8bbd f71b 013d 8b53 81bd 5f20 1d3d
00000050: 5307 33bd 6e41 86bc ee04 5d3d 6000 ca3b
00000060: 7150 9d3b 8fb1 40bd 8bcb 36bc fbb6 8bbd
00000070: fc19 85bc 4e8d 37bd ff41 acbd 5e62 ac3b
00000080: 9768 8f3c 97d0 433d 8e26 75bd 69b0 8c3d
00000090: dedb 85bd 73ba 82bc 7491 1fbd 2159 68bd
000000a0: 1ea4 f5bc 9876 48bd de64 963d 41cf a2bb
000000b0: ba7a ab3c 4520 173d 1a9d 0bbd 7afb 0d3d
000000c0: 761e bc3b c8f8 46bd 0a1d 85bd 3283 5b39
000000d0: 4424 333d 01e4 7cba 3067 afbd b878 373c
000000e0: 2ae6 a33c 9088 a5bc f31e 213d 90b5 02bc
000000f0: 42ff f2bc 48c2 413c 29b3 c53b 12e2 84bb
00000100: 7a78 c0bc fcc5 153d e8c1 8c3d c424 eebc
00000110: 8e7d 03bd 40e5 3d3c ce72 30bb cf21 5bbd
00000120: f604 ad3d c789 69bd 9493 18bd 4212 b9bc
00000130: c186 92bd ad43 27bc bc36 9ebd c007 32bd
00000140: 36f6 2dbd 2f23 9f3a 529f 4d3d 2976 a5bb
00000150: 0540 e33c f93c 32bd b6b4 f63c 457e 25bd
00000160: 392d 77bd ff30 2e3c 9125 a13c da4a 663d
00000170: 2543 3a3d ebbe 85bd 517c f23a b3f5 81bd
00000180: 30cb debc c18e 19b8 456e 62bd 955f 063d
00000190: ced7 403d 8fb5 07bd 0cfd 163d 813c 693c
000001a0: a109 013d e927 173d 50da dd3c 1154 53bc
000001b0: 5224 f13c 8cce 2bbd 389c c3bd bbd6 13bb
000001c0: afe6 2abb 4bd9 46bd c74d 4f3d 6b9f 48bd
000001d0: 636a fcbc 866f d3bc e330 45bd e6e0 ea3b
000001e0: b564 8fbd 9c7d 833d c8d4 2cbc 5601 913c
000001f0: 2987 9dbc 2bfc c33c e519 cf3c e47c cdbc
00000200: 8546 1ebd 65c9 4e3d 4a1a cd3b 8e05 b13d
00000210: 121d 5e3d 1c9e abbc 201a acbd 851a e33c
00000220: cd13 78bd bf3b 54bd 79c9 aabc 139c b23c
00000230: ae9d 383d e23c 783d cebb 12bd a8ba 91bd
00000240: 8643 943b 97a2 4ebc e7ce 4e3d f720 8c3d
00000250: adbe 1e3d 1750 443c d30e c6ba 4b2f ad3d
00000260: 4abd eb3c 3da1 26bd 32a7 9e3d f6c1 80bd
00000270: 03fe b7bc 130f 903d 47a8 54bc f271 92bd
00000280: dd44 fc3b 8686 87bc e581 243d 0748 0dbc
00000290: bec8 27bd 783c 133d a91f cf3c 4aef 95bd
000002a0: 7de6 15bc e603 933d d8ab 02bd b394 47bd
000002b0: eb56 dd3d 2311 eb3c cea5 6fbd 44bc 8dbb
000002c0: 5e21 813c ab41 0bbd fc17 913b 86f0 85bd
000002d0: f9e4 d2bc 29db 023c 62b8 3cbd 2147 91bd
000002e0: 2c75 32bc 9051 7abd d362 b83b b887 a3bc
000002f0: a7f0 1ebc 57ed 68bd a586 063d a763 713c
00000300: fed7 563c e38e 5f3d b580 13bd 98a2 5bbd
00000310: 64fe d5bc 2dd6 8ebd 09e0 cc3c d21f 8b3d
00000320: ea7a 9b3c 70cb 013c 394c 8fbd 3e52 02bd
00000330: db6d 41bd 6c37 89bd a4f1 0f3d cc03 83bb
00000340: 9a3e db3b d077 a9bb 5717 8e3c 6d55 3fbd
00000350: 4543 4c3d 9d2f 1abd e618 d2bc 59a8 cabb
00000360: 886d 153c 18c8 bb39 bac7 05bd 5f3f 473d
00000370: dd8c e8bc 737a b8bc ca68 a1bd 3f21 363d
00000380: 3179 8ebd 6bed 95bd f57c 3f3d 70e8 0ebb
00000390: 2c4e 07bd 4246 7b3c f9ff 70bd d505 163d
000003a0: b4e9 46bd 0aa6 62bd 14e6 81bd 22b0 8338
000003b0: 2d94 433d 0a1e 873c 9cc7 573d aa76 9a3d
000003c0: f7d0 a3ba ffbe 8a3b c79d 9a3a 435a 0ebd
000003d0: 7cd6 5ebd edcb 093d 0ef3 32bc a649 4e3d
000003e0: fa9b 80bd 0c13 1d3d 00a9 e1bc 9872 18bc
000003f0: f969 b8bd 2bb0 2d3d 858d c23c 7963 47bc

fc3.weight f4 [300, 400]
0.043481987 0.014736829 -0.06651466 0.027726248 -0.028056782 -0.027975436 -0.01324401 0.041397065
-0.035877403 -0.13956009 0.013607341 -0.050453816 0.0071148984 0.058709774 -0.028937798 -0.08080422
-0.09308502 -0.012620506 -0.038733665 -0.011452005 -0.0648352 -0.07973641 -0.0061292127 0.0097046085
-0.011536357 0.050239574 0.02641251 -0.04647351 0.044313148 0.028325975 0.019496547 -0.04999196
-0.0769509 -0.05153154 0.014975183 -0.0118774045 -0.0801922 0.021181775 -0.047578245 0.008673774
0.07162673 -0.0049922434 5.3826327e-05 0.020145968 0.04050254 -0.013916052 0.07517865 -0.033251546
0.044410583 0.075669184 -0.03342842 0.033583853 -0.044196192 -0.0606212 -0.08263881 0.033806812
-0.08936915 -0.020200342 0.07851694 0.0022145724 0.013598675 -0.034952365 0.04268932 0.028180383
0.036977466 -0.021468332 0.052248448 -0.049337383 0.0055543133 0.017563105 -0.14917517 0.04484004
0.06851458 0.039106816 -0.013196106 -0.037689216 -0.08608528 -0.053637855 0.0122463815 0.03709404
-0.114846684 -0.0058024665 -0.05206011 0.020295134 -0.036698543 -0.036685303 0.0109123895 -0.027910858
-0.05836 -0.07109178 -0.084443 0.038503587 0.059730552 -0.082565755 -0.012506391 -0.009791293
0.014668152 -0.057908334 -0.03696313 -0.060619894 -0.008104269 0.01304518 0.050399926 -0.059147187
0.0019430453 0.024653992 -0.050102677 -0.04067707 0.032891735 -0.10265765 0.035461225 0.028696585
-0.09853354 0.024890354 -0.010089406 0.014690636 0.11762544 -0.013377678 0.0008497628 -0.04990455
-0.0314209 -0.00211325 0.05086078 0.014720713 0.024900671 -0.0051731276 -0.008551388 0.023679212
-0.05512011 0.014219543 0.055206113 -0.14903282 0.06649548 -0.024498036 -0.024221323 -0.06316834
-0.010761465 -0.03609075 0.032211345 -0.029808495 0.008449009 -0.019228239 -0.092564605 0.015321941
0.027937371 -0.008805196 0.061051138 0.044689037 -0.049086314 0.010956545 -0.05375642 -0.026543174
-0.033557914 -0.02139395 -0.015142911 -0.053552557 -0.01807841 0.0686731 0.0070213173 -0.058098175
-0.10794856 0.03861105 -0.08331735 -0.0058628973 -0.030205661 0.008077952 -0.07032864 -0.106932886
0.01723275 -0.06536777 -0.002975945 0.02144731 0.030891892 0.021349937 0.012132191 0.041839357
-0.018832622 0.0051097623 -0.077985406 -0.03259326 -0.0066656535 -0.038270187 0.04114512 0.072252855
0.029383935 0.037999008 0.038738586 0.052089076 -0.028606024 -0.009924265 -0.008366865 -0.066434614
0.07227647 -0.023598405 -0.05021838 0.028437357 -0.046144363 0.04755395 0.040279474 0.09613278
0.023442684 -0.053677447 -0.03417667 -0.088175364 0.08101161 0.008398582 0.03613044 -0.0090566985
0.048732407 0.006627169 -0.023772396 -0.0022025832 -0.07122774 -0.049845003 -0.0045084534 -0.035698548
0.02395106 -0.019523444 -0.00029153776 0.039766897 0.112114616 0.026507031 -0.09296691 -0.07467092
0.008988603 0.015842902 0.035678104 0.023715492 -0.078751065 -0.02706355 0.045775507 -0.0895672
0.0856613 -0.063776195 -0.00057959725 0.04034458 -0.005661206 0.054341324 -0.0684614 -0.04377897
0.09209408 0.010152851 -0.017335676 0.03226322 -0.039914772 -0.021349717 0.0040794816 0.0035617205
-0.11257639 0.010529096 0.124458864 -0.025685798 0.0229356 0.059997004 -0.12971261 -0.034681812
00000000: 2b1a 323d be72 713c d738 88bd 2822 e33c
00000010: 56d7 e5bc be2c e5bc 67fd 58bc f88f 293d
00000020: 2ff4 12bd d7e8 0ebe 53f1 5e3c a9a8 4ebd
00000030: 1824 e93b a979 703d f60e edbc af7c a5bd
00000040: 5ca3 bebd 3dc6 4ebc 31a7 1ebd 31a1 3bbc
00000050: 51c8 84bd d84c a3bd 90d7 c8bb 1400 1f3c
00000060: fd02 3dbc 03c8 4d3d 0c5f d83c 025b 3ebd
00000070: b481 353d e00b e83c 39b7 9f3c 5fc4 4cbd
00000080: 6f98 9dbd bc12 53bd 785a 753c 7299 42bc
00000090: cf3b a4bd 6785 ad3c 68e1 42bd 721c 0e3c
000000a0: 09b1 923d f995 a3bb 94c3 6138 2809 a53c
000000b0: fee5 253d 2700 64bc 44f7 993d c632 08bd
000000c0: dfe7 353d 72f8 9a3d 3dec 08bd 398f 093d
000000d0: 1107 35bd ef4d 78bd 893e a9bd 0379 0a3d
000000e0: 2c07 b7bd 307b a5bc 7dcd a03d 5c22 113b
000000f0: facc 5e3c 362a 0fbd ffda 2e3d 8cda e63c
00000100: af75 173d 5bde afbc 7802 563d ff15 4abd
00000110: f500 b63b 80e0 8f3c 60c1 18be 31aa 373d
00000120: 5f51 8c3d 782e 203d 7b34 58bc 0260 1abd
00000130: 7b4d b0bd 5eb3 5bbd 0ca5 483c ecef 173d
00000140: bd34 ebbd 9e22 bebb fb3c 55bd fb41 a63c
00000150: 3651 16bd 5443 16bd e1c9 323c 50a5 e4bc
00000160: e50a 6fbd 9198 91bd 74f0 acbd f0b5 1d3d
00000170: 06a8 743d 3c18 a9bd 9be7 4cbc a96b 20bc
00000180: b052 703c 4a31 6dbd a766 17bd 914c 78bd
00000190: c5c7 04bc 73bb 553c 2770 4e3d 5244 72bd
000001a0: c8ad fe3a 2bf7 c93c 7738 4dbd 009d 26bd
000001b0: 7cb9 063d 2d3e d2bd ca3f 113d 1a15 eb3c
000001c0: f4cb c9bd dbe6 cb3c 094e 25bc feb0 703c
000001d0: 9be5 f03d 0c2e 5bbc 9ec2 5e3a b768 4cbd
000001e0: 34b3 00bd 747e 0abb 6553 503d 252f 713c
000001f0: 7efc cb3c 5783 a9bb 1f1b 0cbc e8fa c13c
00000200: a0c5 61bd 16f9 683c ce1f 623d 0f9c 18be
00000210: c82e 883d 1bb0 c8bc cc6b c6bc 675e 81bd
00000220: db50 30bc e5d3 13bd 0bf0 033d f230 f4bc
00000230: b66d 0a3c 8a84 9dbc 8392 bdbd e108 7b3c
00000240: eadc e43c ab43 10bc c210 7a3d da0b 373d
00000250: bb0e 49bd 1583 333c b12f 5cbd 1271 d9bc
00000260: 0674 09bd 5d42 afbc f919 78bc ed59 5bbd
00000270: 2c19 94bc 7ba4 8c3d 1413 e63b 5af8 6dbd
00000280: 2214 ddbd 9f26 1e3d 49a2 aabd 8c1d c0bb
00000290: dd71 f7bc 6359 043c 7608 90bd a1ff dabd
000002a0: b22b 8d3c 8adf 85bd 1208 43bb 45b2 af3c
000002b0: fe10 fd3c 10e6 ae3c 19c6 463c bf5f 2b3d
000002c0: df46 9abc cb6f a73b d0b6 9fbd 8380 05bd
000002d0: 8e6b dabb 33c1 1cbd c987 283d 4ef9 933d
000002e0: 94b6 f03c d9a4 1b3d 5aac 1e3d 5b5b 553d
000002f0: 2e57 eabc 6299 22bc 2d15 09bc df0e 88bd
00000300: b005 943d 7151 c1bc cab1 4dbd 76f5 e83c
00000310: df01 3dbd eec7 423d 17fc 243d 43e1 c43d
00000320: df0a c03c e2dc 5bbd d6fc 0bbd 4995 b4bd
00000330: 6ae9 a53d 359a 093c 83fd 133d 8c62 14bc
00000340: a29b 473d b928 d93b 54be c2bc 3759 10bb
00000350: d9df 91bd 462a 4cbd a6bb 93bb a438 12bd
00000360: 0335 c43c a1ef 9fbc 89d9 98b9 9de2 223d
00000370: 599c e53d 4625 d93c 6f65 bebd 11ed 98bd
00000380: ef44 133c f9c8 813c 3423 123d fe46 c23c
00000390: 3d48 a1bd 61b4 ddbc 197f 3b3d 026f b7bd
000003a0: 316f af3d 189d 82bd 1df0 17ba 5c40 253d
000003b0: a381 b9bb 0295 5e3d 7e35 8cbd 9451 33bd
000003c0: d29b bc3d 2558 263c 8c03 8ebc 7026 043d
000003d0: ac7d 23bd 9ae5 aebc 2cad 853b c16b 693b
000003e0: 738e e6bd 3b82 2c3c 4ae4 fe3d 066b d2bc
000003f0: 70e3 bb3c 6bbf 753d 62d3 04be 840e 0ebd

fc3.bias f4 [300]
0.098776564 -0.051841535 0.0628236 -0.0931607 0.05889876 -0.018848604 -0.021028725 -0.075677805
-0.014197041 -0.043159816 -0.07562575 0.06543531 0.11327325 -0.04705955 -0.021116013 0.0127626285
0.006292022 -0.026742416 0.051661592 0.054604862 0.098682575 0.12356216 0.05693671 -0.055138513
0.060917534 0.07939277 -0.09186986 -0.012693991 0.08837351 -0.065950274 -0.010664738 -0.013702953
-0.09931631 -0.04979895 0.09194928 -0.07112208 0.117249414 0.05458005 0.10639059 0.021606911
0.01037739 -0.06511058 -0.08507104 0.09491662 -0.008866109 0.17977507 0.04824029 -0.0034733587
-0.076383874 -0.026720855 0.09797052 -0.004820595 0.10661635 0.06340523 -0.0725481 -0.023947926
0.046499636 -0.08056348 -0.08422744 0.19104995 0.09863107 0.072837815 0.07473223 0.086763024
0.057760186 0.0038365654 -0.005796157 -0.04108459 0.114119135 0.0240138 0.018139081 -0.07925775
-0.07809419 0.04608548 -0.03758851 0.1334214 0.04893753 -0.02160193 0.06086902 -0.05820982
0.113142475 -0.0042463453 -0.03173875 -0.038059883 0.021861024 0.1045044 -0.10828508 -0.040999077
-0.04066772 -0.008134728 0.04984437 -0.039085902 0.16856018 0.08171084 -0.094078556 0.06076403
-0.05091606 0.06629475 0.144599 0.046087276 0.08843711 -0.09042673 0.054463096 0.06590512
0.035873625 0.096220694 0.10841653 -0.05538202 0.074857414 0.10624164 0.061003022 0.069942094
0.19791183 0.17038104 0.029400837 -0.04164483 0.103379875 0.018473648 0.016211953 0.035146177
0.030700943 0.10355825 -0.08022944 -0.093337946 0.028243527 0.007203274 0.060714792 0.018167613
0.07290669 -0.096167356 -0.023119224 -0.054769434 0.06608448 0.12913372 0.09857165 -0.065177746
0.028113332 0.09299022 0.102258265 -0.1122778 0.024738843 0.043207347 0.0529337 -0.080049135
0.028031152 0.053286355 0.054045603 -0.0052575716 0.016269058 -0.062052187 0.033404604 -0.09403825
-0.019630928 0.030179316 0.07970017 0.043087006 0.08603466 -0.05944097 0.1320734 0.039733876
-0.054135565 0.07242195 0.12646404 0.015353838 0.12594694 0.05242972 0.0077645336 0.062154666
-0.020658165 -0.022591185 0.020096362 -0.05073769 0.08189147 -0.0021559733 -0.09193668 0.08886277
-0.0060957028 0.08112643 -0.06136134 -0.074373744 -0.03414132 -0.09742285 -0.027426226 0.020360008
0.029952513 -0.050405335 0.057511915 0.07421546 0.09940289 -0.026133582 0.033768907 0.07461282
0.03829453 -0.072884716 -0.018062219 0.06358783 -0.07855746 -0.015841622 0.09728163 0.11471831
0.10708345 0.030948764 -0.09700817 0.06093147 -0.039365213 0.056737464 0.0736173 -0.02767044
0.07463065 0.17128891 -0.011647367 -0.06759665 -0.037490558 -0.04807844 -0.08856263 0.08197986
-0.09251772 -0.08044578 -0.092608586 0.019292073 0.076623075 0.06280109 0.03760881 -0.016340036
-0.09497503 -0.093052015 -0.07773251 -0.097119965 0.086634755 -0.018301133 0.056602813 -0.03648203
0.016029866 -0.026573217 -0.021455497 -0.020518955 -0.044467594 -0.02041792 -0.09981486 -0.03151307
0.105586536 -0.05111389 0.12552343 0.021588976 -0.04513134 0.13011512 0.11169856 -0.012817651
0.14237669 -0.011161275 -0.055268314 0.09025428 0.12939247 0.09818352 0.15730387 0.034324188
00000000: 5e4b ca3d ca57 54bd a9a9 803d 09cb bebd
00000010: d33f 713d 6368 9abc 6f44 acbc f7fc 9abd
00000020: b59a 68bc 59c8 30bd ace1 9abd f302 863d
00000030: cefb e73d 84c1 40bd 7dfb acbc 581a 513c
00000040: 4e2d ce3b e912 dbbc 1b9b 533d 59a9 5f3d
00000050: 171a ca3d 280e fd3d 7836 693d ecd8 61bd
00000060: aa84 793d ad98 a23d 4426 bcbd 75fa 4fbc
00000070: 2cfd b43d f010 87bd 27bb 2ebc 5a82 60bc
00000080: 5966 cbbd fcf9 4bbd e74f bc3d 74a8 91bd
00000090: 7620 f03d 558f 5f3d 4fe3 d93d fa00 b13c
000000a0: ee05 2a3c b258 85bd ba39 aebd a563 c23d
000000b0: 2843 11bc f516 383e 9c97 453d 4aa1 63bb
000000c0: 266f 9cbd b2e5 dabc c5a4 c83d 15f6 9dbb
000000d0: ac59 da3d 9ada 813d 1994 94bd 712e c4bc
000000e0: 6776 3e3d 77fe a4bd 707f acbd 99a2 433e
000000f0: 16ff c93d fe2b 953d 360d 993d d0b0 b13d
00000100: f295 6c3d e36e 7b3b b0ed bdbb 5148 28bd
00000110: 4bb7 e93d 97b8 c43c 6998 943c e351 a2bd
00000120: d9ef 9fbd 21c4 3c3d 69f6 19bd 9f9f 083e
00000130: b872 483d 88f6 b0bc cb51 793d 6c6d 6ebd
00000140: 3eb7 e73d ed24 8bbb 7e00 02bd aee4 1bbd
00000150: e415 b33c 6706 d63d 91c4 ddbd a6ee 27bd
00000160: 3293 26bd 8647 05bc 9c29 4c3d 8a18 20bd
00000170: 0a9b 2c3e 0358 a73d 42ac c0bd b4e3 783d
00000180: 5c8d 50bd 8bc5 873d c311 143e 03c6 3c3d
00000190: 841e b53d a631 b9bd b214 5f3d 43f9 863d
000001a0: 39f0 123d 5b0f c53d 7c09 de3d 42d8 62bd
000001b0: d84e 993d 3895 d93d 4ede 793d cd3d 8f3d
000001c0: 66a9 4a3e 5e78 2e3e 06da f03c c593 2abd
000001d0: d4b8 d33d 0c56 973c eece 843c 70f5 0f3d
000001e0: 8b80 fb3c 5916 d43d 554f a4bd f727 bfbd
000001f0: f85e e73c 7109 ec3b 13b0 783d 3fd4 943c
00000200: 1a50 953d 64f3 c4bd 8764 bdbc ea55 60bd
00000210: 4d57 873d a13b 043e efdf c93d e97b 85bd
00000220: ee4d e63c a871 be3d c86c d13d e7f1 e5bd
00000230: 1da9 ca3c 30fa 303d 02d1 583d cdf0 a3bd
00000240: 96a1 e53c cb42 5a3d ec5e 5d3d b547 acbb
00000250: b046 853c 6f2a 7ebd 44d3 083d 2097 c0bd
00000260: 0ad1 a0bc 9d3a f73c d839 a33d 007c 303d
00000270: f132 b03d 6078 73bd 403e 073e fdbf 223d
00000280: 41bd 5dbd f651 943d ca7f 013e aa8e 7b3c
00000290: 3cf8 003e 8cc0 563d a16d fe3b e495 7e3d
000002a0: 503b a9bc 2611 b9bc 20a1 a43c 53d2 4fbd
000002b0: b7b6 a73d 3b4b 0dbb 4c49 bcbd affd b53d
000002c0: 76be c7bb 9d25 a63d 0756 7bbd 4351 98bd
000002d0: c5d7 0bbd a285 c7bd f7ac e0bc 08ca a63c
000002e0: f95e f53c d375 4ebd 9d91 6b3d 46fe 973d
000002f0: be93 cb3d 1816 d6bc 4451 0a3d 9bce 983d
00000300: bada 1c3d 9544 95bd 38f7 93bc 563a 823d
00000310: bce2 a0bd 4ac6 81bc 973b c73d 6ff1 ea3d
00000320: 914e db3d 4388 fd3c 38ac c6bd 4793 793d
00000330: 6b3d 21bd 8b65 683d abc4 963d 1ead e2bc
00000340: f4d7 983d 5c66 2f3e 99d4 3ebc 1d70 8abd
00000350: b38f 19bd e6ed 44bd 5360 b5bd 0fe5 a73d
00000360: ee79 bdbd c2c0 a4bd 92a9 bdbd 690a 9e3c
00000370: 8fec 9c3d dc9d 803d b20b 1a3d 8adb 85bc
00000380: 4582 c2bd 0e92 bebd 3932 9fbd d5e6 c6bd
00000390: 906d b13d 42ec 95bc 5ad8 673d 2e6e 15bd
000003a0: 1151 833c 13b0 d9bc 70c3 afbc 5e17 a8bc
000003b0: a723 36bd 7b43 a7bc bc6b ccbd d913 01bd
000003c0: c13d d83d cc5c 51bd 3789 003e 5ddb b03c
000003d0: a4db 38bd e63c 053e 37c2 e43d 2001 52bc
000003e0: 32cb 113e c8dd 36bc 0761 62bd 3cd7 b83d
000003f0: 767f 043e 7114 c93d 4414 213e 8597 0c3d
