checkpoint_actor.pth (torch_old, 675071 bytes, 6 tensors)

fc1.weight f4 [500, 33]
00000000: 5860 1dbd be65 efbe 6563 cfbd 4558 a1bd
00000010: b218 fabc e020 bfbd 57eb 753c 601d 00be
00000020: d5e4 703b 71f9 49be 56ba dcbd 7a34 4abe
00000030: 3245 f2bd 22a9 d3be 1e0d 0f3f 005a 363e
00000040: 734b 9abd 4bfd 0d3d 75cb 7bbe 78f9 88bc
00000050: f223 96be 5598 c53d a01d 1ebd 2de2 18bd
00000060: 0051 6ebd afd0 f0bd 9546 2c3f e32e 863e
00000070: bbfe b2be d85c 08bd d1f8 83be 7c27 0abc
00000080: 1a22 30c0 1fb4 8cbd 7dc2 053f 8ff5 a33c
00000090: bc0f 81be 4eb0 a3be 596a 323e a66e 5cbe
000000a0: b7f7 85bc 8717 74bf 7fe0 9dbe cf84 0cbf
000000b0: 3f88 22be 2cbf 99be f75c 67be a8f9 303e
000000c0: 68e9 963d 8dd8 b9be 0bd4 383e 6523 fbbd
000000d0: 86e1 8f3e 92c1 99be dd08 a03c bc80 193f
000000e0: 86e4 e63d 721d 9cbe 9d98 75be b247 23bb
000000f0: c73f 603f 0dae 04be c590 2abd 9882 52bf
00000100: 1ba0 35bd 3c9f 1f3f cec7 f33d 9d49 443e
00000110: 871a 2cbf 5f70 223e 162c f13d 6a14 1b3e
00000120: b9c5 41be 0754 debe c166 73bc 78cd 713d
00000130: 5d0f e33c c47a 1fbd 48d0 373d 5eb3 203e
00000140: fef9 eabe f99b 383f e1ba 50be 384f 0f3c
00000150: c2a5 16bd 0f51 4c3d b378 1c3e 84c9 69bd
00000160: a406 91be ddc4 803d 14ae 633d 1cf1 8bbd
00000170: a6d5 9fbe b982 803e 9486 86be eea3 e03c
00000180: ff58 a1be ec85 3bbc b8e5 15c0 8e1e 223e
00000190: 6c84 cc3e d3d9 8dbe 017f 0dbd 723b af3c
000001a0: 43e8 53bd 3f84 afbe db1b 963e c0fa 1fbd
000001b0: 239e dbbe f9df 3abe 5a77 2cbe e0ad a6be
000001c0: e79a bcbe 8f59 03bf 794e 3cbe 17c4 fbbd
000001d0: 87d9 4f3e 6054 ccbd f083 16be d893 e8bd
000001e0: 0116 44bd 31fb ef3c 9df4 4fbd 1fb3 8abe
000001f0: 81a5 bf3e ac9f 813d 9df4 313f bde1 c13e
00000200: 1226 a23c 7203 43bf 0456 5a3c be54 4c3f
00000210: 43b5 f63d a2f9 513f dfb2 42be 44d3 9fbe
00000220: 1439 67be e8ad cd3d 8279 91bd 98ce a7bc
00000230: 3f23 6d3e c911 fa3d 026c 073e 015e 7c3e
00000240: ce3f 7abe 8c5d 3ebe 6faa 9e3e c5c5 42be
00000250: f89e 0dbe 80bc 653d 7e92 a7bd cc2c 533e
00000260: b81c 5e3d 2078 a5bd 64bc 833d ac55 5abe
00000270: 136c 773e dbb7 61be 361b dfbd 8dc6 7c3f
00000280: f54b de3c 80d0 b63b 4206 80bf d512 263d
00000290: cf13 c33f 122e 093f 3ac6 9ebe 39ea 853d
000002a0: 224d 2abe 30e2 613d 6a2d 013f ddfe 86bd
000002b0: f8a0 983e d81b 363e b4b3 8d3e b3a9 a13c
000002c0: 77a9 aa3d 44d2 dfbe 9da6 5cbd b49a 683f
000002d0: 20dd 073f a2a6 b93e eca5 f93d 3d98 0dbe
000002e0: 6ade 4cbe e675 98bd 07ce ca3e 6254 39be
000002f0: 1ed7 bb3e 3bdb 3b3e a3ec 703c 69dd b53c
00000300: 028a 293f 1ef9 d0bd c6ea 8c3c b82b 20bf
00000310: e7e4 1e3d 1cf0 db3f ae5d f03c 365c c23e
00000320: 9b97 30bf 7b31 92be 5ee0 283f 7575 7e3b
00000330: d35e a23c d89d 393e 4eec 27be dd94 bf3e
00000340: 0bb4 5e3e 4ff4 bc3e 10df cebe cb74 0fbc
00000350: 7183 d73e 7d11 c93d 536d 0a3e bfad 82be
00000360: 398d 0abf ad1b a2bd 0196 38be 3cf8 0a3d
00000370: ff76 ab3d 1b33 73be 189d 2ebe f806 073e
00000380: bf40 443e fbff 593f e3e2 ba3e c7f0 0c3d
00000390: e32e 61bf 445f 813c 8c64 46be 615d 0dbd
000003a0: 0cdf 31bd 4827 e43e 306e 1bbe aef5 a1bd
000003b0: 2018 943e d34f 143e 9dbf de3c 8c1a edbd
000003c0: 539d 4c3e 7427 a63d 373d 37be 347d 73be
000003d0: fe2d 8ebd b550 853f 4e23 c8bd 2cf2 843e
000003e0: dfb7 edbd 3a62 cc3b d87d 873c f238 07bf
000003f0: 3b67 2cbd eabd 663e 04c8 7a3c dfb3 c0bd
-0.03842196 -0.4675731 -0.1012638 -0.07878164 -0.030529354 -0.09332442 0.015009723 -0.12511206
0.0036757488 -0.1972406 -0.10777728 -0.1974658 -0.11829604 -0.41339976 0.5587939 0.1780777
-0.07533922 0.034665387 -0.24589331 -0.016720518 -0.293243 0.09648196 -0.03860247 -0.037325073
-0.058182716 -0.11758553 0.672952 0.26207647 -0.3495997 -0.033291668 -0.2577577 -0.008432265
-2.7520814 -0.06870293 0.5224989 0.020014552 -0.25207317 -0.31970447 0.17423381 -0.21526584
-0.016353471 -0.953484 -0.3083534 -0.5489015 -0.15872286 -0.30028665 -0.22594057 0.17282736
0.073687375 -0.36298028 0.18049638 -0.1226261 0.28101748 -0.30030495 0.019535476 0.5996206
0.11274056 -0.30491215 -0.23983999 -0.002491456 0.87597317 -0.1295702 -0.04164197 -0.8223052
-0.04434214 0.6235235 0.11903344 0.19168706 -0.6722798 0.15863179 0.11775987 0.15144506
-0.18923081 -0.43423483 -0.014856041 0.05903384 0.027717287 -0.038935438 0.044876367 0.15693423
-0.45893854 0.72112995 -0.20383789 0.008746915 -0.036779173 0.04988199 0.15280418 -0.057076946
-0.2832538 0.06287549 0.055585936 -0.06833097 -0.31217688 0.25099733 -0.2627455 0.027421918
-0.3151321 -0.011445504 -2.342146 0.15831968 0.3994478 -0.2770525 -0.03454495 0.02139065
-0.051735174 -0.34280583 0.29318127 -0.039057493 -0.42894086 -0.18249501 -0.16842404 -0.3255453
-0.3683693 -0.5130853 -0.1838931 -0.122932605 0.20297824 -0.09977031 -0.14698768 -0.11356324
-0.047872547 0.029294582 -0.05077039 -0.27089784 0.37430957 0.06329283 0.69513875 0.37867537
0.019793544 -0.7617713 0.013326172 0.79816806 0.12046292 0.82021534 -0.19013546 -0.3121587
-0.22580367 0.100429356 -0.07103254 -0.020484254 0.23157977 0.122104235 0.13224795 0.24645235
-0.24438402 -0.18590373 0.30989406 -0.19020756 -0.13830173 0.05608797 -0.08182238 0.20622557
0.054226607 -0.08079553 0.06432417 -0.21321744 0.24162321 -0.22042792 -0.10893862 0.98740464
0.027135829 0.0055790544 -1.000191 0.040545303 1.524042 0.5358592 -0.3101061 0.06538815
-0.16630986 0.05514735 0.5045992 -0.0659158 0.2981031 0.17784059 0.27676165 0.01973424
0.08333104 -0.43715107 -0.053869832 0.9086106 0.53071785 0.36259943 0.1218985 -0.13827606
-0.20006719 -0.07444362 0.3961031 -0.18098596 0.3668756 0.18345349 0.014704856 0.022200303
0.6622621 -0.10203765 0.017201792 -0.6256671 0.038792517 1.718265 0.029341545 0.37960976
-0.6898133 -0.28553376 0.6596736 0.0038827334 0.019820606 0.18126619 -0.16398737 0.3741826
0.21748368 0.36905143 -0.40404558 -0.008755873 0.4209247 0.09817789 0.13518266 -0.25523183
-0.5412174 -0.07915435 -0.18025972 0.03392814 0.08372306 -0.23749964 -0.17052114 0.13186252
0.19165324 0.8515622 0.36501226 0.03440931 -0.8796217 0.015792497 -0.19374293 -0.03451288
-0.043425605 0.4456122 -0.15178752 -0.07908188 0.28924656 0.14483576 0.027190978 -0.11577329
0.1998189 0.08112994 -0.17894445 -0.2377823 -0.06942366 1.0415255 -0.09772359 0.25966012
-0.11607336 0.0062372955 0.0165395 -0.52821267 -0.042090636 0.22533384 0.0153064765 -0.09409308

fc1.bias f4 [500]
00000000: bb6b cfbe c294 33bf c792 5abe 2bb3 43bf
00000010: 4977 60bf 387f 2cbf a997 4dbf af63 d6be
00000020: 7210 54bf be62 0ebf 3bc9 a7be 57f2 ebbe
00000030: 9bd0 03bf 030a edbe 76fb 0cbf 5ac5 26bf
00000040: 4015 4fbf 196c 19bf 0691 5dbf 24d7 c63d
00000050: 0abd 48bf 8e6a 1cbf 37c3 febe 2fc8 70bf
00000060: 9225 a8be 671a c1bc bc30 30bf 0952 cebe
00000070: b170 46bf 455b 3bbf c3b8 24bf 7357 b6be
00000080: 7bdc 4abf 3865 3bbf 31e4 53bf c082 1fbf
00000090: cde8 47bf 1c62 9cbf 9e62 44bf 62ed 58bf
000000a0: 8a69 5cbf 2f5a 88bf 5c97 09bf d837 efbe
000000b0: de50 52bf 30d8 32bf 07a6 e2be eec8 d0be
000000c0: 632a a1be ef59 7cbf 8caf 8bbf 316b 8abf
000000d0: b548 c8be ef6e 06bf c5c3 4fbf b818 03bf
000000e0: 23a7 f7be eefc a9be c446 19bf b637 14bf
000000f0: 23a2 b9be 8531 86be 6e82 74bd a4b2 25bf
00000100: ee93 bfbe 38ea 3bbf 36db bfbe d57a 5cbf
00000110: c5fb ccbe 2944 ecbe 011a afbe 1598 e5be
00000120: 9769 19bf 3cc3 5bbf 96fe 06bf aaeb fbbe
00000130: 9451 b33d 14d2 43bf 2f6f 52bf 079a d4be
00000140: 094b 84bf b8c1 d3be 1783 89bf f14e 5dbf
00000150: 0eb7 81bf ab61 353e 9b74 47bf b2e9 d6be
00000160: 57f8 08be 34ec 3bbf d6d0 42bf fb8c 47bf
00000170: 9b0c 77bf d98a 59be 981e 27bf 7c92 2ebf
00000180: 1da4 0fbf 0dc4 2ebf 2342 6dbf f1b8 4abf
00000190: 8f83 22bf 4ab3 84bf c1cf 00bf 59d8 3ebf
000001a0: 8ab5 53bf 018b 1cbe 8e1c 9abe 295b d7be
000001b0: 13c3 b6be a39c 57bf ff07 c3be 6d9b 1ebf
000001c0: 24fb 95bf 3e45 85bf a622 75be 14a9 b6be
000001d0: 3f38 20bf 84f5 28bf 744f fcbe 3064 4bbe
000001e0: 98ff 03be d67c 7ebf 9614 35bf ed5e f4be
000001f0: 1357 3bbf 890b 11bf 3675 4dbf 83e6 4ebf
00000200: da88 a63d efdc f3be 0db7 293e 5726 3fbf
00000210: 4792 a7be f85d dabe be60 dbbd 4aba f3be
00000220: b8ff 3bbe 4619 24be f084 10bf e374 1bbf
00000230: fb22 57bf 41bc febe d6e2 00bf 2f24 2cbe
00000240: 02ab 4cbf 26a6 08bf d6f7 38bf b208 26bf
00000250: 8134 a9bf 78a3 69bf 4892 38bf f7a6 7bbd
00000260: 2ec3 bfbc ecb8 42bf aa8c a0be 9a2a 0cbf
00000270: 6b5b 4fbe 4eb7 163d 79b5 5abf 8908 3bbe
00000280: e0cc 45bf 8460 f9be 204c e9be d6c0 0dbf
00000290: ffa4 18bf 59fd 10be 1fec 56bf faa6 6fbf
000002a0: 74cf 21bf 6086 0ebf 5960 81bf 4d5e 3dbf
000002b0: 068d 83bf f678 23bf d702 43bf 55c3 75bf
000002c0: d1e7 19bf a13d ecbe 6981 21bf 5d63 49bf
000002d0: befb 4abf ca25 e8be 10a8 15bf 1bbe 86bf
000002e0: 4b82 2dbe 57c3 12bf f8ab f7be 1408 663d
000002f0: 4320 06bf caa1 71bf 0e9d 71bf 0436 0dbf
00000300: ca50 e6be 30be 29bf 46f7 ddbe 7c85 30bf
00000310: 8659 89bf 54ad bdbe cec5 a5be 0068 2ebf
00000320: 38f3 13bf e825 16bf 4629 cfbe 5b48 26be
00000330: 37bd 56bf 2b1d 1ebf b8f2 10bf 6186 27bf
00000340: 66bb fbbe 5e3c f3be cb80 1abf bbc8 ecbe
00000350: e527 11bf f3a8 0fbf ace0 4cbf 114e 31bf
00000360: 9d5c 49be f9d2 5bbf 272b 48bf 1815 9cbe
00000370: bc49 71bf 82e7 7cbf 2289 3f3d 2401 f6bd
00000380: 2a2c 50bf ce22 25bf 6a6f 4fbf a79a c6be
00000390: e96d 13bf 1eea 60bf 85e5 06bf 9f5f 86be
000003a0: 2eab 54bf 1371 1fbe bc07 00bf 17f1 5cbe
000003b0: 5f05 73bf 43de 82bf b577 a8be 5b51 0fbe
000003c0: 43c3 6bbf 14a3 94be f2c4 11bf d2f9 e3be
000003d0: f34e 46bf 2ddd 0abf adac 56bf 7727 7abf
000003e0: 01bf a8bd 698e 09bf 5de4 80bf d48b aebe
000003f0: 0a83 ecbe c5bf 68bf 0a0e 0fbf a17a 4fbf
-0.4051188 -0.7014886 -0.21345054 -0.76445264 -0.87682015 -0.6738162 -0.8030954 -0.41872928
-0.82837594 -0.5561942 -0.32770714 -0.46083328 -0.5149018 -0.462967 -0.550712 -0.65144885
-0.808918 -0.5993057 -0.86549413 0.097090036 -0.7841345 -0.6110009 -0.49758312 -0.94055456
-0.32841164 -0.02357216 -0.6882436 -0.40296963 -0.77515703 -0.7318614 -0.64344424 -0.35613593
-0.79242676 -0.7320132 -0.8277007 -0.62308884 -0.780896 -1.2217441 -0.7671298 -0.8473722
-0.8609854 -1.0652522 -0.5374658 -0.46722293 -0.82154644 -0.69861126 -0.44267294 -0.40778297
-0.3147765 -0.9857473 -1.0912948 -1.0813962 -0.3911797 -0.5251302 -0.81158096 -0.5120959
-0.48369703 -0.33200783 -0.59873605 -0.5789751 -0.36256513 -0.26209655 -0.0596947 -0.6472571
-0.3741755 -0.73404264 -0.37471932 -0.86124927 -0.40035835 -0.46145752 -0.34199527 -0.44842592
-0.5992674 -0.8584478 -0.5273222 -0.49203235 0.08755794 -0.7649243 -0.822009 -0.41523764
-1.0335399 -0.41358733 -1.074313 -0.8644858 -1.0133989 0.17713039 -0.779123 -0.4197517
-0.13375984 -0.7340729 -0.7609991 -0.77949494 -0.9650361 -0.21244372 -0.6528106 -0.6819227
-0.5610979 -0.682679 -0.9267904 -0.7918845 -0.6348199 -1.0367215 -0.5031701 -0.7454887
-0.8269888 -0.15287401 -0.3009991 -0.42061737 -0.35695705 -0.84223384 -0.38092038 -0.6195591
-1.1717267 -1.0411756 -0.23938999 -0.3567587 -0.62585825 -0.6599963 -0.49279368 -0.19862437
-0.1289047 -0.99409235 -0.70734537 -0.47728673 -0.7317974 -0.56658226 -0.80256975 -0.8082048
0.08131571 -0.47629496 0.16573735 -0.74667877 -0.32728788 -0.42649817 -0.107118115 -0.47603065
-0.18359268 -0.16025266 -0.56452847 -0.6072523 -0.8403775 -0.49753 -0.50346124 -0.16810678
-0.7994844 -0.5337852 -0.7225317 -0.6485702 -1.3219148 -0.9126506 -0.7209821 -0.061438527
-0.023408499 -0.7606342 -0.31357318 -0.54752505 -0.20249717 0.036795907 -0.85433155 -0.18264975
-0.7726574 -0.48706448 -0.4556589 -0.5537237 -0.59626764 -0.14159144 -0.8395404 -0.9361416
-0.63207173 -0.5567379 -1.0107528 -0.73972017 -1.0277412 -0.63856447 -0.7617621 -0.9600118
-0.6011935 -0.4614077 -0.6308809 -0.7866724 -0.7929038 -0.4534133 -0.5845957 -1.0526766
-0.16944234 -0.57329315 -0.4837339 0.056160048 -0.5239298 -0.94387496 -0.9438027 -0.55160546
-0.44983512 -0.6630583 -0.43352717 -0.6895368 -1.0730445 -0.370463 -0.32377476 -0.6812744
-0.57793 -0.5865159 -0.40461177 -0.16238539 -0.8388247 -0.61763257 -0.5662036 -0.6543942
-0.4916641 -0.47506994 -0.6035277 -0.46246895 -0.567015 -0.5611717 -0.8003032 -0.69259745
-0.19664235 -0.85868794 -0.78190845 -0.30484843 -0.94253135 -0.9879075 0.04676164 -0.12011936
-0.8131739 -0.6450623 -0.8102938 -0.38789865 -0.57589585 -0.87857234 -0.5269397 -0.26244828
-0.830737 -0.15570478 -0.500118 -0.21576343 -0.9493007 -1.0224079 -0.3290383 -0.13995878
-0.9209482 -0.2903067 -0.5694114 -0.44526535 -0.77464217 -0.5424374 -0.8385723 -0.9771647
-0.08239556 -0.53732926 -1.0069691 -0.34091055 -0.46193725 -0.9091762 -0.55880797 -0.8104649

fc2.weight f4 [300, 500]
00000000: a972 f93e 7753 94be e7a5 92be e258 e63e
00000010: d803 ecbe ef97 b93e 069d 2fbd 5c62 c83e
00000020: a6f2 d63e 869e 3a3d 575e 5bbf d50e d3be
00000030: 0b20 0c3d b8e1 b53d e390 503e 6e3b 18bf
00000040: eaaf b53e dba7 38be 64bd 2d3f 568d 013d
00000050: 70ee 5f3e 0b29 26be eb52 b2be 024c ccbd
00000060: 05d7 5d3e b954 6e3c 9f14 40be cb65 8cbe
00000070: ce25 7abe ee2e 30be 65ef 9cbe 6ef6 dfbe
00000080: f4d6 843e 5af3 203d f604 8fbe 0dda d4be
00000090: 9bdc 033e 9585 cb3e de80 1cbe fe03 943e
000000a0: 94f9 6a3e 262b 033f 92a3 fb3d d4a6 f73e
000000b0: d615 40bf f9a7 fbbd 128a 4f3e 40db 86be
000000c0: 79ff a93e 097d 0abd 36d4 f23d 366f a13e
000000d0: 7fc0 c0bd 5d49 86be 05b5 81be e379 0f3e
000000e0: a310 4dbe ab01 af3e 18b3 a03a e457 d73e
000000f0: d9bd afbe 564c 47bf 3920 84bf a13b dd3e
00000100: 3d2d 22be 1793 863e c168 ca3e 59b5 8e3d
00000110: 5e6e 713e d8dc f03e 1be3 eb3d 1c48 4b3d
00000120: 0513 10bc 67f6 80be ebfb c4be 960e ed3d
00000130: f68c b23c b2e1 82bd 3dcb 883e 1502 c83d
00000140: f787 c03e de66 90be 2d20 08bf d6ae f73e
00000150: d3fd 0dbe 46cd 6dbf ecc2 25bd 1487 f93e
00000160: 442c b2be 98c0 4fbe 2302 5f3e fb12 2dbe
00000170: 178f d23e a2c2 ca3d 8b9b b5be 0f05 d03d
00000180: fc7a 55be dd29 97be 10d7 113e 37a0 35be
00000190: a0eb c6bd 6796 86be c7e1 8ebe 1671 e93e
000001a0: 4759 973e a9fd 333e 6851 b83e 3a71 163e
000001b0: aaf2 64be 9f0a e73d b9be 34bf d172 f6bd
000001c0: e891 b9be d239 4d3e a50f c43e 27a0 17be
000001d0: 0c92 52be 6125 7a3c 96a2 75be 59c4 133d
000001e0: d1af 4c3d 3b71 6bbd fd81 d03d 3fa8 f4be
000001f0: 6e01 29be 2347 043f 2417 e2be dacd 3ebe
00000200: 74c1 043e cb2b 9d3e d099 1cbf f826 533e
00000210: b2ef 12bf 6943 3abf 6cef 843e 69de 11bc
00000220: c470 09bf 1d5f dfbe ef14 703e 356c 793e
00000230: 20db 70be fba6 28be 26e7 483d 6ca1 9bbc
00000240: c7bb 8ebd 2aa7 bdbe 60f5 883d a0cc cc3d
00000250: ec81 733e 69ae 18be 9970 01bf 433b 663e
00000260: 20ee 18bf c0e2 0bbe 73a5 54bf d9bd 21bf
00000270: 922f 283e 0b09 843e fdd7 8a3c c5c6 083e
00000280: d049 c4be b566 2fbe 83f4 97be d644 483f
00000290: 8341 13bf 0dc6 cc3e f7e5 9d3e 269c 53bf
000002a0: a70b ae3e 92f1 03bf 5150 c8bd bc7a 3bbe
000002b0: 3f9e bbbe cd21 0f3e 8586 333f 0364 813d
000002c0: e2b1 093f 41e1 c2be 6e50 253e bd90 3bbe
000002d0: ca14 e03e 6f59 363e a071 223e 32fa 03bf
000002e0: 6b46 3f3d 8008 75be 288f 503e 6217 97bf
000002f0: 30a5 e0bd ef4c 4bbe 05c6 f73e 95cf 6abe
00000300: 2db3 ac3e 68d7 52be bd0c e9be 975e babd
00000310: 92d0 4e3e dae0 56be 46e5 b83d 570d 9d3e
00000320: 8bca 813d c1de 453e ef0c 313e c18a 4cbd
00000330: 75d4 22be 8973 b73c 9834 adbd 2956 bfbe
00000340: ebbb f1bd c6ee 83be d2e3 bdbc a731 3fbe
00000350: e3f9 273e 22bd 00be fc94 87be 09f3 153e
00000360: 8282 923c 2480 d9be 98d8 153d 1a05 ecbe
00000370: 80e2 283e 539f 71bf 64f7 0cbf e0fe 493d
00000380: fbd0 6e3f b1cb c13e 575b 8bbe cef4 c8bc
00000390: a16f 21bf ba06 a7bd 1cad 6ebe 9934 173e
000003a0: fb08 87be 7a91 c2be c58b 0cbf a6c6 a1bd
000003b0: 3839 78bd 9764 30be d9e3 80be fdf8 b83c
000003c0: 57fa 043e 44fa 513e bcde 0ebe 3c37 423d
000003d0: 9fd1 103f 4358 85bc 3a85 353e b083 07be
000003e0: c44b 92bd d761 46b9 ba07 2ebd 1419 a6be
000003f0: ccf5 e2bd fa1a 223e 502e afbd 19d4 32bd
0.4872029 -0.2896993 -0.28642198 0.44989687 -0.46096683 0.3624873 -0.04287436 0.39137542
0.41982 0.045561336 -0.85690826 -0.41222253 0.034210246 0.08880943 0.2036777 -0.5946568
0.35485774 -0.18032782 0.6786711 0.03162893 0.218683 -0.16226594 -0.34828886 -0.09975435
0.21664055 0.014546567 -0.18757866 -0.27421412 -0.24428484 -0.17205402 -0.30651394 -0.43742698
0.25945246 0.039294578 -0.27933472 -0.4157261 0.12877123 0.39750353 -0.15283534 0.28909296
0.22946769 0.51237714 0.12287058 0.48369467 -0.7503332 -0.122878976 0.20267513 -0.2633915
0.33202723 -0.03381065 0.11856882 0.3153016 -0.09411716 -0.26227847 -0.2533342 0.1401134
-0.20025878 0.3418096 0.0012260405 0.42059243 -0.3432453 -0.77850854 -1.0322334 0.43209556
-0.1583757 0.26284096 0.39533046 0.06968183 0.23577258 0.4704349 0.11517926 0.049629316
-0.008793597 -0.2518799 -0.38473448 0.11575048 0.021795731 -0.06390704 0.26717559 0.09766022
0.37603733 -0.2820348 -0.53174096 0.48375577 -0.13866358 -0.9289135 -0.040469095 0.4873587
-0.34799397 -0.20288312 0.21778159 -0.16901772 0.41124794 0.099004045 -0.35470232 0.10157215
-0.20847696 -0.29524127 0.14242196 -0.17736898 -0.09712911 -0.26286623 -0.2790663 0.4559409
0.295603 0.17577232 0.35999608 0.1469163 -0.22358194 0.11281323 -0.7060352 -0.12033618
-0.3624413 0.20041588 0.38293186 -0.14807187 -0.20563525 0.015267701 -0.23987803 0.036075924
0.04997236 -0.057481032 0.10181043 -0.47784612 -0.16504452 0.51671046 -0.4415828 -0.18633214
0.12964422 0.30697474 -0.611722 0.20620334 -0.57396996 -0.7275911 0.25963914 -0.008903124
-0.5368769 -0.43627253 0.23445486 0.24357684 -0.2352109 -0.16469948 0.049048565 -0.01899787
-0.069694094 -0.370416 0.066874266 0.099999666 0.2378003 -0.14910282 -0.50562435 0.22483544
-0.5973835 -0.13660717 -0.83064955 -0.6318031 0.16424397 0.2578815 0.016948694 0.13357075
-0.38337564 -0.17129023 -0.29678735 0.78230035 -0.5752184 0.3999485 0.30839512 -0.8266014
0.33993265 -0.5154048 -0.09780944 -0.18308538 -0.3664417 0.13977738 0.70127136 0.06317904
0.5378705 -0.3806248 0.16143963 -0.18316932 0.4376586 0.17807554 0.15863657 -0.5155364
0.046698015 -0.23929024 0.2036711 -1.1804011 -0.10969007 -0.19853567 0.48393264 -0.22930749
0.3373045 -0.20589983 -0.4551753 -0.09100073 0.20196751 -0.20984212 0.090281054 0.3067424
0.0633746 0.19323255 0.1729009 -0.049937014 -0.15901358 0.022393959 -0.08457297 -0.37370422
-0.11803421 -0.25768107 -0.023179922 -0.18671285 0.16403918 -0.12572148 -0.26480854 0.14643492
0.017884497 -0.42480576 0.036583513 -0.46097642 0.16492653 -0.94383734 -0.5506499 0.049315333
0.9328763 0.37850717 -0.27218124 -0.024530794 -0.6306096 -0.0815558 -0.23308223 0.14766158
-0.2637404 -0.38001615 -0.5490077 -0.07899217 -0.060601443 -0.17225872 -0.25173834 0.022579664
0.12986122 0.20505625 -0.13952154 0.047415957 0.56569856 -0.016277438 0.17726603 -0.13233829
-0.071433574 -0.000189192 -0.042487837 -0.32441008 -0.11082038 0.15830603 -0.08553755 -0.043659303

fc2.bias f4 [300]
00000000: 506b 7e3d 5676 acbd 5d6d 06bf fb7e 5ebd
00000010: 8914 15bc 785f 40bf ea4a 3fbc 8365 493e
00000020: fdb9 dabd dc31 c83c 9ff7 b1bd dc51 67bd
00000030: 9d51 47be b6d9 233e f109 f3be 0f69 02bf
00000040: 7405 5b3e eb3e 01bf 0d46 7fbd 9ebb 2dbd
00000050: ee07 07bf 7744 02bf a639 fcbe d2aa bfbc
00000060: 8560 f3bc a701 efbc 992e 60be aab8 0f3e
00000070: 251c a5be 60f6 91bb c5b0 c0be 139e aebd
00000080: bfc5 e4bb 1a43 6cbd b3c4 8dbe abb6 b4bd
00000090: 64d3 53be 1a9b 6bbe 262f e4be 2b65 9abe
000000a0: e38d 11be 7495 8a3d 10f7 43be 990e c3be
000000b0: 3272 03bb 696c 5dbe 35a1 d4bc 7499 42bf
000000c0: a9f4 eabd 60d9 27be 0fd1 a7be 88dd c4bd
000000d0: e94d bbbd 1a05 d2be 5a39 f0bd 867c 54bf
000000e0: a3fa dbbe 8b30 1bbe 147a 17bf c295 18be
000000f0: 91e2 94bd 9b7d d3bd 8bca 5ebe 96f3 2cbf
00000100: 07bb 52bd 0176 a7be c0f7 383b fd02 7cbe
00000110: 996a 9d3e 321b 3bbe 8d11 d4be c46c 9cbd
00000120: a97c 44be f318 1dbe 9a47 04be 1e68 47bb
00000130: 5fda debe 38af 203e 53f4 cbbe 1a67 33bf
00000140: afef 74be e957 53bd cd1b 2d3c 2e89 023e
00000150: c40d 16bf 8264 1dbf 1899 40be 37b9 39bf
00000160: 88c0 9cbd 097d 04be 5a7d dcbd 9539 c2be
00000170: 70c5 793d b665 b8be 1d89 3bbf a0cb 983b
00000180: 8a25 b13d bc96 73be cb2a 07bf a86f 06bd
00000190: a6f9 3ebe b2b3 debe c993 ecbd d113 19bf
000001a0: 211b 223e ee20 55bf 6c4d e6bc 6f85 c73c
000001b0: 5fed 23bb 28fd 13bf 0d6a 1cbf c6ad febd
000001c0: 524a 47be 5994 a9be fc92 213c 9a79 e83c
000001d0: d0dd 69be b7ce 0ebf b93c 86bd af35 2c3e
000001e0: ace7 56be 7f09 07bf 4461 273d 685b 29be
000001f0: c8d4 3cbd 2358 9fbe a602 bfba f2cb 663c
00000200: 1809 82be c4f3 6dbd 1fc0 4ebd 4d0e 67bd
00000210: b9eb 283e b78a d5be e67a 15bf 0b51 bdbe
00000220: d617 e9be 4bfe 2c3c e6a5 f63a 02d6 f8bb
00000230: b455 b9bd cfc2 19be 318d e0be 0549 23be
00000240: ef5f 6fbe bd2c a1bd d77c 07bf c800 3fbf
00000250: 1f6f b23c 936a 563c 2eab 2fbe 5b3d 85bd
00000260: 5a4f f3bd 64da 663d 1b96 443e 16c4 b1bd
00000270: cc7f fdbd 1391 dbbe c02d 86bd 80ad cfbd
00000280: f533 ddbe af1d cfbc 1928 b0be e1da acbe
00000290: 68f0 e5bd 15fb bfbc de3d 95be ba13 8bbd
000002a0: 7b49 54be 5a6a 833a 3827 f0be 8e4f d2be
000002b0: 8461 46be b9a2 cfbd f7d6 cfbe 5c26 0cbd
000002c0: 3fa2 61be 1bc6 26be f206 6e3d 024c 20bd
000002d0: 458f dfbd 9f64 933a 69a6 a73d d991 febc
000002e0: 46a5 72be ad85 16bf 34bd adbd 5304 d43d
000002f0: 2134 80bd 1b69 01be e046 0fbd f592 cd3b
00000300: b901 abbc d532 1abf 0591 aabc 93c9 0fbd
00000310: a5a3 143e 80d9 36be feb7 783b 563f 90be
00000320: d2c1 263d 4c31 d3be 44d1 b73c a303 a4be
00000330: 5762 7e3c d161 a7bd 366d 0abd 7eca 10be
00000340: ea2f 20be fe28 12bd eaac babe d1b7 e4be
00000350: 1ede 83bd 586e 31bf 0cbd bbbe 264b f2bc
00000360: 0043 2cbe 0a83 46bc 14f5 a7be 969f 503c
00000370: f13f 42bd e328 fcbd f39a 11bd fa6f 7b3d
00000380: fe7d 17bd 677f 76be 810a cbbd b1c2 33bd
00000390: 2525 0dbd 3bf9 2cbd eafe c8bd efff 51bd
000003a0: 1511 3dbe 6065 09be 5eaf 063d 57b7 fbbc
000003b0: e5a6 8cbd 396c 30bf a58c 3fbf d765 b43d
000003c0: 0fa0 bfbd 4879 1dbe 8704 9abd 287d 83bd
000003d0: 1455 95be 2751 edbd 01da 09bd 0b2b a6bc
000003e0: 548f 20be 828c 6cbd 9dc5 31be f185 c7bd
000003f0: 2543 27be 7b85 d0be 6580 4c3d 9c93 aabe
0.06211406 -0.08421008 -0.52510625 -0.054320317 -0.009099134 -0.75145674 -0.011675576 0.1966763
-0.10680006 0.024437837 -0.08689808 -0.05647455 -0.19464727 0.16001019 -0.47468522 -0.50941557
0.21388799 -0.5048663 -0.062322665 -0.042415254 -0.52746475 -0.5088572 -0.49262732 -0.023396883
-0.02970911 -0.029175593 -0.21892776 0.14035287 -0.32248035 -0.004454419 -0.37634864 -0.08526244
-0.006981581 -0.05768118 -0.27689132 -0.08823904 -0.20686108 -0.23008385 -0.4456722 -0.3015531
-0.14214282 0.06766787 -0.19137216 -0.38097075 -0.002005708 -0.21623386 -0.025955776 -0.760154
-0.114724465 -0.16391516 -0.32776687 -0.09612566 -0.091457196 -0.41019517 -0.11729689 -0.8300251
-0.42964658 -0.15155236 -0.5917065 -0.14900878 -0.072697766 -0.10326692 -0.21756952 -0.6755918
-0.051447894 -0.32707217 0.0028223842 -0.24610515 0.3074539 -0.18272093 -0.4141964 -0.07637933
-0.19188179 -0.15341549 -0.12917939 -0.003042705 -0.4352598 0.1569184 -0.39834842 -0.70079195
-0.23919557 -0.05159751 0.01056571 0.12747642 -0.58614755 -0.6148149 -0.188084 -0.7254824
-0.0765391 -0.12938322 -0.107660964 -0.37934557 0.060979307 -0.360151 -0.73256093 0.004662946
0.08649738 -0.2378797 -0.5279967 -0.032821327 -0.18649921 -0.43496472 -0.11551625 -0.5979586
0.15830661 -0.8325337 -0.02811309 0.024355618 -0.002501331 -0.5780816 -0.6109932 -0.124354884
-0.19461945 -0.33120993 0.009861704 0.028378297 -0.22838521 -0.5578417 -0.06554551 0.16817354
-0.20986813 -0.52748865 0.040864244 -0.16538775 -0.04610136 -0.3112193 -0.0014572933 0.01408671
-0.25397563 -0.0580938 -0.05047619 -0.056410123 0.16496171 -0.41707394 -0.58390653 -0.36975893
-0.45525998 0.010558675 0.0018817752 -0.007593871 -0.0904955 -0.1501572 -0.4385772 -0.15945823
-0.2337644 -0.07869861 -0.52924865 -0.7461057 0.021781502 0.013086933 -0.17155144 -0.06505843
-0.118803695 0.056360617 0.19197886 -0.086799785 -0.12377891 -0.4288412 -0.06551695 -0.101405144
-0.43203703 -0.025282709 -0.34405592 -0.3376074 -0.112274945 -0.023435155 -0.29148763 -0.06790872
-0.20731156 0.0010026202 -0.46904922 -0.4107632 -0.19373137 -0.10138459 -0.40593693 -0.03421627
-0.22034548 -0.16286509 0.058112092 -0.039134987 -0.10915998 0.0011245197 0.08186037 -0.031075405
-0.2369586 -0.58797723 -0.08483353 0.10352387 -0.06259943 -0.12637751 -0.0349797 0.006273622
-0.020874845 -0.60233814 -0.020821104 -0.035104346 0.1451555 -0.17856407 0.0037951465 -0.2817332
0.040712185 -0.41248548 0.022438653 -0.32034025 0.015526376 -0.08172954 -0.033795558 -0.14139745
-0.15643278 -0.035683624 -0.36460048 -0.4467149 -0.0643885 -0.69308996 -0.3666767 -0.02957685
-0.16822433 -0.012116203 -0.32804167 0.012733361 -0.04742426 -0.12312486 -0.03554816 0.061386086
-0.03698539 -0.24072038 -0.09914113 -0.043886844 -0.034459252 -0.042229872 -0.09814246 -0.051269468
-0.18463548 -0.13417578 0.032882087 -0.030727072 -0.0686777 -0.68915135 -0.7482398 0.08808487
-0.09356701 -0.15378296 -0.07520395 -0.06420356 -0.29166472 -0.11587744 -0.03365517 -0.020284196
-0.15679675 -0.057751186 -0.1736054 -0.09742344 -0.16334207 -0.40726838 0.049927134 -0.33315742

fc3.weight f4 [4, 300]
00000000: 5484 ccbe 569d 7b3c 9199 b63e 2895 f2bc
00000010: b7d0 d4bb c13c 073f 53c6 3a3e 0cbc cf3d
00000020: a1f1 1cbe f316 a1bc 8e8a 42bd d506 e13d
00000030: 9b47 5dbd 5472 093f 2712 7c3e 3d4d 653f
00000040: fa76 d7be fe50 1cbf 0ef0 25bf a504 ec3e
00000050: 0f4f 22bf 27a2 bbbe 015d 6dbe 1375 88bd
00000060: 0051 73bc 6ecf 12bc 1f2b 333e 8970 e83e
00000070: a2b1 453e 07b4 63bc 8945 00bf d004 12bd
00000080: 57d4 b3be 6d75 743d 786c 19bc e79e 013c
00000090: 5e4b 5cbd 85c3 ac3d fe9b c7be 0471 9b3d
000000a0: 4061 f2bc 383a c63d 3868 ec3e cc2f 693f
000000b0: a043 bbbc 2441 11be d363 ce3a a477 46be
000000c0: dc15 c13d af77 25be 5120 f93c 564c 5e3d
000000d0: 4c21 aa3c 999c d6be 4042 0ebc 9ba9 34bf
000000e0: ad8f 0c3e 11dc 633f 58dc 8ebe cc5b 123e
000000f0: c1d6 47bf 1b48 31bd dccd 82be bfcb e23d
00000100: 799c 85bd db20 ebbd 1671 3bbc bcf8 b13e
00000110: 0800 0fbf 4af0 07bb 0c69 55bc 0f7a b5be
00000120: 8277 183e 885e eebc 9674 8bbb f5ff a2bc
00000130: 84e9 fe3e 8178 b93e c2d7 20be 971b 3bbf
00000140: 2a92 a6be 4dcd cb3d a8f9 cdbb d7cf a8be
00000150: ab01 303f 3d21 b0be 9cae 453f 004e d4bc
00000160: 040d 05bf b928 19bc 58d7 c3bd fd64 b63d
00000170: 6d04 003f 77ef 97be 04bf 09be 4554 2abe
00000180: d7c8 193f 1511 003f 0283 963e 303a b3bc
00000190: d61f 553f e437 eb3e 8418 753d 7be4 34bf
000001a0: e837 d83e 738e 073f 0737 2d3d fa5e fbbe
000001b0: 1bf6 c73c ac42 da3e 612f 84be e11a d4be
000001c0: 78fe 90bd 4186 ff3c 3f82 b9bc 9650 25be
000001d0: 697e ee3e f4c9 c2be 95fe 36bd 909e 56bf
000001e0: 59d9 f8bd 5e90 87bf c926 fa3f ac04 223b
000001f0: 51a3 973e 8f6e 16bd ec93 b83e ddce c5bc
00000200: 6b9a 81bf 93b8 bfbc 1254 9abc 3486 8bbb
00000210: e60b a8bf 961e 093f 1cf7 f2be 0ca6 b8bd
00000220: abf6 b13e 5a7d 183a 04fe e1bc 0920 b0bc
00000230: a679 7f3c 5ac3 79be 5530 803e 14d6 c7be
00000240: 3c17 9b3a 5c4e b7bc f1ea cd3d 1b33 423e
00000250: f6c6 d33e 1237 fe3c 6b9c 2a3f 61fc 893d
00000260: 31b9 4abd c972 6e3f 1483 313f ace3 dd3c
00000270: d242 333e 83ef a3be a480 47bc 3140 2bbd
00000280: f20a 3dbf 14a1 deba 8e52 f6be c4c2 2bbe
00000290: d7ec 69bd 45a2 063b 674c 0a3e 8405 52bd
000002a0: 0ce8 a93d f6e5 93bc ad95 953e 9f64 f43e
000002b0: e949 1b3d 0456 93be 497e eb3d 4dee 063d
000002c0: 4815 143f 9d5f 32bd bd05 ae3e 96f6 eb3c
000002d0: f255 313e c2eb b43b 4a3c 903d b0ca aabc
000002e0: d569 21bf e773 983e 3139 a3bd 62ff 05bf
000002f0: 3dfe 0cbd 94bc 743d 8f5a e3bc 27fa 6dbc
00000300: a9a1 8d3d a817 93be a0f4 9fbc 1613 083d
00000310: 9e2e 313f 3a35 91be b659 5bba 5553 35bf
00000320: 9f6a 043f 9b1d 2abf a273 de3b ee5b 01bd
00000330: 590a 18bb 0683 1fbe 2b1f 38bd 4d89 0e3e
00000340: 7ae1 8e3f 8576 e8bc 215f 663e 5c00 12bf
00000350: 0324 893c bbc9 fc3e 39ac bc3d a932 7abc
00000360: b064 8fbe fbf9 283f 6585 843e 36f9 a3bc
00000370: ae0f 32bd bb26 e43b b4c0 d53e 1658 f2bd
00000380: 2fe2 07bd 031f b73e a5e1 7d3f b801 243f
00000390: 890c 183d 3674 363c 3b94 bcbb 060b 483f
000003a0: 0f81 ab3d 9d85 b2bb cee0 7e3f c782 66bd
000003b0: 7e32 c93e 30f1 263e 1ba3 f4be 4c56 443d
000003c0: d8a4 dd3c 0e38 f93e 72a2 483d 3bde 4a3d
000003d0: bd02 da3e a5a5 043e 3b81 a4bc 3c85 a3bc
000003e0: 0cfc 983d 71c1 d13b 5e6c ecbe 26b7 983d
000003f0: 6d03 87bd c5cb 09bd 2d56 153f 724a 12bf
-0.39944708 0.015357336 0.35664037 -0.029612139 -0.0064946073 0.5282708 0.18239717 0.10143289
-0.15326549 -0.019664263 -0.047495417 0.10987631 -0.054023366 0.53690076 0.246163 0.8957098
-0.4208296 -0.61061084 -0.6481942 0.46097293 -0.63401884 -0.3664715 -0.2318001 -0.06662955
-0.014850855 -0.008960588 0.17496918 0.45398358 0.19306043 -0.013897902 -0.501061 -0.03564912
-0.3512294 0.0596823 -0.00936424 0.00791142 -0.053782813 0.0843573 -0.389862 0.075899154
-0.029587388 0.09679073 0.46173263 0.9108856 -0.022859395 -0.14185005 0.0015746303 -0.19381577
0.094279975 -0.16158937 0.030410917 0.05427202 0.02076783 -0.4191635 -0.008682787 -0.705713
0.13726683 0.8900767 -0.27902484 0.1429283 -0.78062063 -0.043281656 -0.25547683 0.11074018
-0.065239854 -0.11480876 -0.011440536 0.34760082 -0.5585942 -0.0020742589 -0.013025533 -0.35444686
0.14889339 -0.02909781 -0.0042558415 -0.01989744 0.49787533 0.3622475 -0.15707305 -0.73088974
-0.3253339 0.099512674 -0.006285865 -0.3297107 0.68752545 -0.3440036 0.7721956 -0.0259161
-0.51972985 -0.009348088 -0.09562558 0.08905981 0.50006753 -0.29674885 -0.13451773 -0.16633709
0.6007208 0.50026065 0.29396826 -0.021878332 0.832517 0.4594108 0.059837833 -0.70661134
0.42230153 0.52951735 0.042288806 -0.490959 0.024409344 0.42628992 -0.25817397 -0.41426757
-0.07079786 0.031191947 -0.022645114 -0.16144022 0.46580818 -0.38044703 -0.044676382 -0.838357
-0.12150831 -1.0590932 1.9543086 0.0024722023 0.29616788 -0.03672653 0.36050355 -0.024146492
-1.012525 -0.023403442 -0.018838916 -0.0042579416 -1.3128631 0.53562295 -0.47454154 -0.09016046
0.34758505 0.00058170187 -0.027586944 -0.02149965 0.015592968 -0.24390927 0.25036874 -0.39030516
0.0011832486 -0.022376232 0.10054577 0.18964808 0.41362733 0.031032119 0.66644925 0.067375906
-0.04949302 0.931439 0.69340634 0.027086101 0.17505959 -0.3201867 -0.012176666 -0.041809265
-0.73844826 -0.0016985261 -0.4810986 -0.16773516 -0.057110634 0.0020543498 0.13505708 -0.05127479
0.082962126 -0.01805399 0.29215756 0.47733018 0.037912283 -0.28776562 0.11498696 0.032942105
0.5784497 -0.043548215 0.33988753 0.028804105 0.17317942 0.0055212686 0.07042749 -0.020848602
-0.6305211 0.29775926 -0.07969893 -0.5234281 -0.034422148 0.059750155 -0.027753143 -0.014524973
0.069156 -0.28728986 -0.019525826 0.033221327 0.6921176 -0.2836092 -0.0008367555 -0.7083028
0.5172519 -0.66451424 0.006788687 -0.03158181 -0.0023199527 -0.15577325 -0.0449516 0.13919564
1.116256 -0.028376827 0.22497226 -0.570318 0.016740805 0.49372658 0.09212536 -0.015270867
-0.28006506 0.6600644 0.25883022 -0.020016294 -0.043471985 0.006962625 0.41748583 -0.11833207
-0.03317469 0.35765848 0.9917243 0.6406512 0.03712133 0.011136105 -0.005754975 0.7814182
0.08374225 -0.005448057 0.99561775 -0.056277063 0.39296335 0.16302943 -0.4778069 0.04793386
0.027056143 0.4867558 0.048983045 0.04952834 0.42580214 0.12953813 -0.020081153 -0.019960992
0.07469949 0.006401234 -0.46176428 0.07456808 -0.0659245 -0.033641595 0.5833462 -0.57144845

fc3.bias f4 [4]
00000000: 2224 a23e 22c9 b73e 1d86 833d 5f54 053e
0.31668192 0.3589564 0.064220645 0.13020466
